…
I0705 20:58:18.046387 13913 solver.cpp:70] Creating training net from net file: proto/reconstructFull.prototxt
I0705 20:58:18.046969 13913 net.cpp:277] The NetState phase (0) differed from the phase (1) specified by a rule in layer data
I0705 20:58:18.047109 13913 net.cpp:39] Initializing net from parameters: 
name: "miniLCLreconstruction"
layers {
  top: "data"
  name: "data"
  type: DATA
  data_param {
    source: "/dataset/cifar100_lmdb_lab/cifar100_train_lmdb"
    batch_size: 512
    backend: LMDB
  }
  include {
    phase: TRAIN
  }
  transform_param {
    mean_file: "/dataset/cifar100_lmdb_lab/mean.binaryproto"
  }
}
layers {
  bottom: "data"
  top: "conv1_1"
  name: "conv1_1"
  type: CONVOLUTION
  blobs_lr: 0
  blobs_lr: 0
  weight_decay: 0
  weight_decay: 0
  convolution_param {
    num_output: 64
    pad: 1
    kernel_size: 3
    weight_filler {
      type: "xavier"
    }
    bias_filler {
      type: "constant"
      value: 0
    }
  }
}
layers {
  bottom: "conv1_1"
  top: "conv1_1"
  name: "relu1_1"
  type: RELU
}
layers {
  bottom: "conv1_1"
  top: "conv1_2"
  name: "conv1_2"
  type: CONVOLUTION
  blobs_lr: 0
  blobs_lr: 0
  weight_decay: 0
  weight_decay: 0
  convolution_param {
    num_output: 64
    pad: 1
    kernel_size: 3
    weight_filler {
      type: "xavier"
    }
    bias_filler {
      type: "constant"
      value: 0
    }
  }
}
layers {
  bottom: "conv1_2"
  top: "conv1_2"
  name: "relu1_2"
  type: RELU
}
layers {
  bottom: "conv1_2"
  top: "pool1"
  top: "pool1_mask"
  name: "pool1"
  type: POOLING
  pooling_param {
    pool: MAX
    kernel_size: 2
    stride: 2
  }
}
layers {
  bottom: "pool1"
  top: "conv2_1"
  name: "conv2_1"
  type: CONVOLUTION
  blobs_lr: 0
  blobs_lr: 0
  weight_decay: 0
  weight_decay: 0
  convolution_param {
    num_output: 64
    pad: 1
    kernel_size: 3
    weight_filler {
      type: "xavier"
    }
    bias_filler {
      type: "constant"
      value: 0
    }
  }
}
layers {
  bottom: "conv2_1"
  top: "conv2_1"
  name: "relu2_1"
  type: RELU
}
layers {
  bottom: "conv2_1"
  top: "conv2_2"
  name: "conv2_2"
  type: CONVOLUTION
  blobs_lr: 0
  blobs_lr: 0
  weight_decay: 0
  weight_decay: 0
  convolution_param {
    num_output: 64
    pad: 1
    kernel_size: 3
    weight_filler {
      type: "xavier"
    }
    bias_filler {
      type: "constant"
      value: 0
    }
  }
}
layers {
  bottom: "conv2_2"
  top: "conv2_2"
  name: "relu2_2"
  type: RELU
}
layers {
  bottom: "conv2_2"
  top: "pool2"
  top: "pool2_mask"
  name: "pool2"
  type: POOLING
  pooling_param {
    pool: MAX
    kernel_size: 2
    stride: 2
  }
}
layers {
  bottom: "pool2"
  top: "conv3_1"
  name: "conv3_1"
  type: CONVOLUTION
  blobs_lr: 0
  blobs_lr: 0
  weight_decay: 0
  weight_decay: 0
  convolution_param {
    num_output: 64
    pad: 1
    kernel_size: 3
    weight_filler {
      type: "xavier"
    }
    bias_filler {
      type: "constant"
      value: 0
    }
  }
}
layers {
  bottom: "conv3_1"
  top: "conv3_1"
  name: "reul3_1"
  type: RELU
}
layers {
  bottom: "conv3_1"
  top: "conv3_2"
  name: "conv3_2"
  type: CONVOLUTION
  blobs_lr: 0
  blobs_lr: 0
  weight_decay: 0
  weight_decay: 0
  convolution_param {
    num_output: 64
    pad: 1
    kernel_size: 3
    weight_filler {
      type: "xavier"
    }
    bias_filler {
      type: "constant"
      value: 0
    }
  }
}
layers {
  bottom: "conv3_2"
  top: "conv3_2"
  name: "reul3_2"
  type: RELU
}
layers {
  bottom: "conv3_2"
  top: "pool3"
  top: "pool3_mask"
  name: "pool3"
  type: POOLING
  pooling_param {
    pool: MAX
    kernel_size: 2
    stride: 2
  }
}
layers {
  bottom: "pool3"
  top: "middleConv50"
  name: "middleConv50"
  type: CONVOLUTION
  blobs_lr: 0
  blobs_lr: 0
  weight_decay: 0
  weight_decay: 0
  convolution_param {
    num_output: 50
    kernel_size: 4
    weight_filler {
      type: "xavier"
    }
    bias_filler {
      type: "constant"
      value: 0
    }
  }
}
layers {
  bottom: "middleConv50"
  top: "middleConv50"
  name: "relu6"
  type: RELU
}
layers {
  bottom: "middleConv50"
  top: "deconv4_1"
  name: "deconv4_1"
  type: DECONVOLUTION
  blobs_lr: 1
  blobs_lr: 2
  weight_decay: 0
  weight_decay: 0
  convolution_param {
    num_output: 64
    pad: 0
    kernel_size: 4
    weight_filler {
      type: "xavier"
    }
    bias_filler {
      type: "constant"
      value: 0
    }
  }
}
layers {
  bottom: "deconv4_1"
  top: "deconv4_1"
  name: "dereul4_1"
  type: RELU
}
layers {
  bottom: "deconv4_1"
  bottom: "pool3_mask"
  top: "unpool3"
  name: "unpool3"
  type: UNPOOLING
  unpooling_param {
    unpool: MAX
    kernel_size: 2
    stride: 2
    unpool_size: 8
  }
}
layers {
  bottom: "unpool3"
  top: "deconv3_1"
  name: "deconv3_1"
  type: DECONVOLUTION
  blobs_lr: 1
  blobs_lr: 2
  weight_decay: 0
  weight_decay: 0
  convolution_param {
    num_output: 64
    pad: 1
    kernel_size: 3
    weight_filler {
      type: "xavier"
    }
    bias_filler {
      type: "constant"
      value: 0
    }
  }
}
layers {
  bottom: "deconv3_1"
  top: "deconv3_2"
  name: "deconv3_2"
  type: DECONVOLUTION
  blobs_lr: 1
  blobs_lr: 2
  weight_decay: 0
  weight_decay: 0
  convolution_param {
    num_output: 64
    pad: 1
    kernel_size: 3
    weight_filler {
      type: "xavier"
    }
    bias_filler {
      type: "constant"
      value: 0
    }
  }
}
layers {
  bottom: "deconv3_2"
  top: "deconv3_2"
  name: "dereul3_2"
  type: RELU
}
layers {
  bottom: "deconv3_2"
  bottom: "pool2_mask"
  top: "unpool2"
  name: "unpool2"
  type: UNPOOLING
  unpooling_param {
    unpool: MAX
    kernel_size: 2
    stride: 2
    unpool_size: 16
  }
}
layers {
  bottom: "unpool2"
  top: "deconv2_1"
  name: "deconv2_1"
  type: DECONVOLUTION
  blobs_lr: 1
  blobs_lr: 2
  weight_decay: 0
  weight_decay: 0
  convolution_param {
    num_output: 64
    pad: 1
    kernel_size: 3
    weight_filler {
      type: "xavier"
    }
    bias_filler {
      type: "constant"
      value: 0
    }
  }
}
layers {
  bottom: "deconv2_1"
  top: "deconv2_2"
  name: "deconv2_2"
  type: DECONVOLUTION
  blobs_lr: 1
  blobs_lr: 2
  weight_decay: 0
  weight_decay: 0
  convolution_param {
    num_output: 64
    pad: 1
    kernel_size: 3
    weight_filler {
      type: "xavier"
    }
    bias_filler {
      type: "constant"
      value: 0
    }
  }
}
layers {
  bottom: "deconv2_2"
  top: "deconv2_2"
  name: "derelu2_2"
  type: RELU
}
layers {
  bottom: "deconv2_2"
  bottom: "pool1_mask"
  top: "unpool1"
  name: "unpool1"
  type: UNPOOLING
  unpooling_param {
    unpool: MAX
    kernel_size: 2
    stride: 2
    unpool_size: 32
  }
}
layers {
  bottom: "unpool1"
  top: "deconv1_1"
  name: "deconv1_1"
  type: DECONVOLUTION
  blobs_lr: 1
  blobs_lr: 2
  weight_decay: 0
  weight_decay: 0
  convolution_param {
    num_output: 64
    pad: 1
    kernel_size: 3
    weight_filler {
      type: "xavier"
    }
    bias_filler {
      type: "constant"
      value: 0
    }
  }
}
layers {
  bottom: "deconv1_1"
  top: "data_reconstruction"
  name: "data_reconstruction"
  type: LOCAL
  blobs_lr: 1
  blobs_lr: 0
  weight_decay: 0
  weight_decay: 0
  local_param {
    num_output: 3
    pad: 0
    kernel_size: 1
    weight_filler {
      type: "xavier"
    }
    bias_filler {
      type: "constant"
      value: 0
    }
  }
}
layers {
  bottom: "data_reconstruction"
  top: "data_reconstruction2"
  name: "data_reconstruction2"
  type: LOCAL
  blobs_lr: 1
  blobs_lr: 0
  weight_decay: 0
  weight_decay: 0
  local_param {
    num_output: 3
    pad: 0
    kernel_size: 1
    weight_filler {
      type: "xavier"
    }
    bias_filler {
      type: "constant"
      value: 0
    }
  }
}
layers {
  bottom: "data_reconstruction2"
  bottom: "data"
  top: "L2_loss"
  name: "L2_loss"
  type: EUCLIDEAN_LOSS
}
state {
  phase: TRAIN
}
I0705 20:58:18.047217 13913 layer_factory.hpp:78] Creating layer data
I0705 20:58:18.047235 13913 data_transformer.cpp:25] Loading mean file from/dataset/cifar100_lmdb_lab/mean.binaryproto
I0705 20:58:18.047281 13913 net.cpp:69] Creating Layer data
I0705 20:58:18.047286 13913 net.cpp:358] data -> data
I0705 20:58:18.047293 13913 net.cpp:98] Setting up data
I0705 20:58:18.047297 13913 data_layer.cpp:32] Opening dataset /dataset/cifar100_lmdb_lab/cifar100_train_lmdb
I0705 20:58:18.047369 13913 data_layer.cpp:71] output data size: 512,3,32,32
I0705 20:58:18.048161 13913 net.cpp:105] Top shape: 512 3 32 32 (1572864)
I0705 20:58:18.048171 13913 layer_factory.hpp:78] Creating layer data_data_0_split
I0705 20:58:18.048187 13913 net.cpp:69] Creating Layer data_data_0_split
I0705 20:58:18.048189 13913 net.cpp:396] data_data_0_split <- data
I0705 20:58:18.048193 13913 net.cpp:358] data_data_0_split -> data_data_0_split_0
I0705 20:58:18.048199 13913 net.cpp:358] data_data_0_split -> data_data_0_split_1
I0705 20:58:18.048204 13913 net.cpp:98] Setting up data_data_0_split
I0705 20:58:18.048208 13913 net.cpp:105] Top shape: 512 3 32 32 (1572864)
I0705 20:58:18.048212 13913 net.cpp:105] Top shape: 512 3 32 32 (1572864)
I0705 20:58:18.048214 13913 layer_factory.hpp:78] Creating layer conv1_1
I0705 20:58:18.048218 13913 net.cpp:69] Creating Layer conv1_1
I0705 20:58:18.048221 13913 net.cpp:396] conv1_1 <- data_data_0_split_0
I0705 20:58:18.048226 13913 net.cpp:358] conv1_1 -> conv1_1
I0705 20:58:18.048231 13913 net.cpp:98] Setting up conv1_1
I0705 20:58:18.048514 13913 net.cpp:105] Top shape: 512 64 32 32 (33554432)
I0705 20:58:18.048523 13913 layer_factory.hpp:78] Creating layer relu1_1
I0705 20:58:18.048527 13913 net.cpp:69] Creating Layer relu1_1
I0705 20:58:18.048529 13913 net.cpp:396] relu1_1 <- conv1_1
I0705 20:58:18.048533 13913 net.cpp:347] relu1_1 -> conv1_1 (in-place)
I0705 20:58:18.048537 13913 net.cpp:98] Setting up relu1_1
I0705 20:58:18.048539 13913 net.cpp:105] Top shape: 512 64 32 32 (33554432)
I0705 20:58:18.048542 13913 layer_factory.hpp:78] Creating layer conv1_2
I0705 20:58:18.048547 13913 net.cpp:69] Creating Layer conv1_2
I0705 20:58:18.048548 13913 net.cpp:396] conv1_2 <- conv1_1
I0705 20:58:18.048553 13913 net.cpp:358] conv1_2 -> conv1_2
I0705 20:58:18.048558 13913 net.cpp:98] Setting up conv1_2
I0705 20:58:18.048763 13913 net.cpp:105] Top shape: 512 64 32 32 (33554432)
I0705 20:58:18.048770 13913 layer_factory.hpp:78] Creating layer relu1_2
I0705 20:58:18.048774 13913 net.cpp:69] Creating Layer relu1_2
I0705 20:58:18.048777 13913 net.cpp:396] relu1_2 <- conv1_2
I0705 20:58:18.048780 13913 net.cpp:347] relu1_2 -> conv1_2 (in-place)
I0705 20:58:18.048784 13913 net.cpp:98] Setting up relu1_2
I0705 20:58:18.048786 13913 net.cpp:105] Top shape: 512 64 32 32 (33554432)
I0705 20:58:18.048789 13913 layer_factory.hpp:78] Creating layer pool1
I0705 20:58:18.048794 13913 net.cpp:69] Creating Layer pool1
I0705 20:58:18.048795 13913 net.cpp:396] pool1 <- conv1_2
I0705 20:58:18.048799 13913 net.cpp:358] pool1 -> pool1
I0705 20:58:18.048804 13913 net.cpp:358] pool1 -> pool1_mask
I0705 20:58:18.048809 13913 net.cpp:98] Setting up pool1
I0705 20:58:18.048813 13913 net.cpp:105] Top shape: 512 64 16 16 (8388608)
I0705 20:58:18.048816 13913 net.cpp:105] Top shape: 512 64 16 16 (8388608)
I0705 20:58:18.048818 13913 layer_factory.hpp:78] Creating layer conv2_1
I0705 20:58:18.048822 13913 net.cpp:69] Creating Layer conv2_1
I0705 20:58:18.048825 13913 net.cpp:396] conv2_1 <- pool1
I0705 20:58:18.048830 13913 net.cpp:358] conv2_1 -> conv2_1
I0705 20:58:18.048833 13913 net.cpp:98] Setting up conv2_1
I0705 20:58:18.049028 13913 net.cpp:105] Top shape: 512 64 16 16 (8388608)
I0705 20:58:18.049034 13913 layer_factory.hpp:78] Creating layer relu2_1
I0705 20:58:18.049038 13913 net.cpp:69] Creating Layer relu2_1
I0705 20:58:18.049041 13913 net.cpp:396] relu2_1 <- conv2_1
I0705 20:58:18.049046 13913 net.cpp:347] relu2_1 -> conv2_1 (in-place)
I0705 20:58:18.049048 13913 net.cpp:98] Setting up relu2_1
I0705 20:58:18.049055 13913 net.cpp:105] Top shape: 512 64 16 16 (8388608)
I0705 20:58:18.049067 13913 layer_factory.hpp:78] Creating layer conv2_2
I0705 20:58:18.049072 13913 net.cpp:69] Creating Layer conv2_2
I0705 20:58:18.049073 13913 net.cpp:396] conv2_2 <- conv2_1
I0705 20:58:18.049077 13913 net.cpp:358] conv2_2 -> conv2_2
I0705 20:58:18.049082 13913 net.cpp:98] Setting up conv2_2
I0705 20:58:18.049273 13913 net.cpp:105] Top shape: 512 64 16 16 (8388608)
I0705 20:58:18.049278 13913 layer_factory.hpp:78] Creating layer relu2_2
I0705 20:58:18.049283 13913 net.cpp:69] Creating Layer relu2_2
I0705 20:58:18.049284 13913 net.cpp:396] relu2_2 <- conv2_2
I0705 20:58:18.049288 13913 net.cpp:347] relu2_2 -> conv2_2 (in-place)
I0705 20:58:18.049291 13913 net.cpp:98] Setting up relu2_2
I0705 20:58:18.049293 13913 net.cpp:105] Top shape: 512 64 16 16 (8388608)
I0705 20:58:18.049295 13913 layer_factory.hpp:78] Creating layer pool2
I0705 20:58:18.049300 13913 net.cpp:69] Creating Layer pool2
I0705 20:58:18.049304 13913 net.cpp:396] pool2 <- conv2_2
I0705 20:58:18.049306 13913 net.cpp:358] pool2 -> pool2
I0705 20:58:18.049310 13913 net.cpp:358] pool2 -> pool2_mask
I0705 20:58:18.049314 13913 net.cpp:98] Setting up pool2
I0705 20:58:18.049317 13913 net.cpp:105] Top shape: 512 64 8 8 (2097152)
I0705 20:58:18.049319 13913 net.cpp:105] Top shape: 512 64 8 8 (2097152)
I0705 20:58:18.049322 13913 layer_factory.hpp:78] Creating layer conv3_1
I0705 20:58:18.049326 13913 net.cpp:69] Creating Layer conv3_1
I0705 20:58:18.049329 13913 net.cpp:396] conv3_1 <- pool2
I0705 20:58:18.049332 13913 net.cpp:358] conv3_1 -> conv3_1
I0705 20:58:18.049336 13913 net.cpp:98] Setting up conv3_1
I0705 20:58:18.049532 13913 net.cpp:105] Top shape: 512 64 8 8 (2097152)
I0705 20:58:18.049540 13913 layer_factory.hpp:78] Creating layer reul3_1
I0705 20:58:18.049543 13913 net.cpp:69] Creating Layer reul3_1
I0705 20:58:18.049546 13913 net.cpp:396] reul3_1 <- conv3_1
I0705 20:58:18.049551 13913 net.cpp:347] reul3_1 -> conv3_1 (in-place)
I0705 20:58:18.049553 13913 net.cpp:98] Setting up reul3_1
I0705 20:58:18.049556 13913 net.cpp:105] Top shape: 512 64 8 8 (2097152)
I0705 20:58:18.049558 13913 layer_factory.hpp:78] Creating layer conv3_2
I0705 20:58:18.049562 13913 net.cpp:69] Creating Layer conv3_2
I0705 20:58:18.049566 13913 net.cpp:396] conv3_2 <- conv3_1
I0705 20:58:18.049571 13913 net.cpp:358] conv3_2 -> conv3_2
I0705 20:58:18.049574 13913 net.cpp:98] Setting up conv3_2
I0705 20:58:18.049787 13913 net.cpp:105] Top shape: 512 64 8 8 (2097152)
I0705 20:58:18.049793 13913 layer_factory.hpp:78] Creating layer reul3_2
I0705 20:58:18.049798 13913 net.cpp:69] Creating Layer reul3_2
I0705 20:58:18.049799 13913 net.cpp:396] reul3_2 <- conv3_2
I0705 20:58:18.049803 13913 net.cpp:347] reul3_2 -> conv3_2 (in-place)
I0705 20:58:18.049806 13913 net.cpp:98] Setting up reul3_2
I0705 20:58:18.049808 13913 net.cpp:105] Top shape: 512 64 8 8 (2097152)
I0705 20:58:18.049811 13913 layer_factory.hpp:78] Creating layer pool3
I0705 20:58:18.049815 13913 net.cpp:69] Creating Layer pool3
I0705 20:58:18.049818 13913 net.cpp:396] pool3 <- conv3_2
I0705 20:58:18.049823 13913 net.cpp:358] pool3 -> pool3
I0705 20:58:18.049826 13913 net.cpp:358] pool3 -> pool3_mask
I0705 20:58:18.049830 13913 net.cpp:98] Setting up pool3
I0705 20:58:18.049834 13913 net.cpp:105] Top shape: 512 64 4 4 (524288)
I0705 20:58:18.049836 13913 net.cpp:105] Top shape: 512 64 4 4 (524288)
I0705 20:58:18.049839 13913 layer_factory.hpp:78] Creating layer middleConv50
I0705 20:58:18.049844 13913 net.cpp:69] Creating Layer middleConv50
I0705 20:58:18.049847 13913 net.cpp:396] middleConv50 <- pool3
I0705 20:58:18.049851 13913 net.cpp:358] middleConv50 -> middleConv50
I0705 20:58:18.049855 13913 net.cpp:98] Setting up middleConv50
I0705 20:58:18.050117 13913 net.cpp:105] Top shape: 512 50 1 1 (25600)
I0705 20:58:18.050122 13913 layer_factory.hpp:78] Creating layer relu6
I0705 20:58:18.050127 13913 net.cpp:69] Creating Layer relu6
I0705 20:58:18.050129 13913 net.cpp:396] relu6 <- middleConv50
I0705 20:58:18.050135 13913 net.cpp:347] relu6 -> middleConv50 (in-place)
I0705 20:58:18.050139 13913 net.cpp:98] Setting up relu6
I0705 20:58:18.050145 13913 net.cpp:105] Top shape: 512 50 1 1 (25600)
I0705 20:58:18.050148 13913 layer_factory.hpp:78] Creating layer deconv4_1
I0705 20:58:18.050155 13913 net.cpp:69] Creating Layer deconv4_1
I0705 20:58:18.050158 13913 net.cpp:396] deconv4_1 <- middleConv50
I0705 20:58:18.050161 13913 net.cpp:358] deconv4_1 -> deconv4_1
I0705 20:58:18.050166 13913 net.cpp:98] Setting up deconv4_1
I0705 20:58:18.050437 13913 net.cpp:105] Top shape: 512 64 4 4 (524288)
I0705 20:58:18.050443 13913 layer_factory.hpp:78] Creating layer dereul4_1
I0705 20:58:18.050447 13913 net.cpp:69] Creating Layer dereul4_1
I0705 20:58:18.050449 13913 net.cpp:396] dereul4_1 <- deconv4_1
I0705 20:58:18.050454 13913 net.cpp:347] dereul4_1 -> deconv4_1 (in-place)
I0705 20:58:18.050457 13913 net.cpp:98] Setting up dereul4_1
I0705 20:58:18.050460 13913 net.cpp:105] Top shape: 512 64 4 4 (524288)
I0705 20:58:18.050462 13913 layer_factory.hpp:78] Creating layer unpool3
I0705 20:58:18.050467 13913 net.cpp:69] Creating Layer unpool3
I0705 20:58:18.050468 13913 net.cpp:396] unpool3 <- deconv4_1
I0705 20:58:18.050472 13913 net.cpp:396] unpool3 <- pool3_mask
I0705 20:58:18.050475 13913 net.cpp:358] unpool3 -> unpool3
I0705 20:58:18.050479 13913 net.cpp:98] Setting up unpool3
I0705 20:58:18.050484 13913 net.cpp:105] Top shape: 512 64 8 8 (2097152)
I0705 20:58:18.050487 13913 layer_factory.hpp:78] Creating layer deconv3_1
I0705 20:58:18.050493 13913 net.cpp:69] Creating Layer deconv3_1
I0705 20:58:18.050494 13913 net.cpp:396] deconv3_1 <- unpool3
I0705 20:58:18.050498 13913 net.cpp:358] deconv3_1 -> deconv3_1
I0705 20:58:18.050503 13913 net.cpp:98] Setting up deconv3_1
I0705 20:58:18.050700 13913 net.cpp:105] Top shape: 512 64 8 8 (2097152)
I0705 20:58:18.050706 13913 layer_factory.hpp:78] Creating layer deconv3_2
I0705 20:58:18.050712 13913 net.cpp:69] Creating Layer deconv3_2
I0705 20:58:18.050715 13913 net.cpp:396] deconv3_2 <- deconv3_1
I0705 20:58:18.050719 13913 net.cpp:358] deconv3_2 -> deconv3_2
I0705 20:58:18.050724 13913 net.cpp:98] Setting up deconv3_2
I0705 20:58:18.050927 13913 net.cpp:105] Top shape: 512 64 8 8 (2097152)
I0705 20:58:18.050932 13913 layer_factory.hpp:78] Creating layer dereul3_2
I0705 20:58:18.050936 13913 net.cpp:69] Creating Layer dereul3_2
I0705 20:58:18.050938 13913 net.cpp:396] dereul3_2 <- deconv3_2
I0705 20:58:18.050942 13913 net.cpp:347] dereul3_2 -> deconv3_2 (in-place)
I0705 20:58:18.050945 13913 net.cpp:98] Setting up dereul3_2
I0705 20:58:18.050947 13913 net.cpp:105] Top shape: 512 64 8 8 (2097152)
I0705 20:58:18.050951 13913 layer_factory.hpp:78] Creating layer unpool2
I0705 20:58:18.050954 13913 net.cpp:69] Creating Layer unpool2
I0705 20:58:18.050957 13913 net.cpp:396] unpool2 <- deconv3_2
I0705 20:58:18.050961 13913 net.cpp:396] unpool2 <- pool2_mask
I0705 20:58:18.050963 13913 net.cpp:358] unpool2 -> unpool2
I0705 20:58:18.050967 13913 net.cpp:98] Setting up unpool2
I0705 20:58:18.050971 13913 net.cpp:105] Top shape: 512 64 16 16 (8388608)
I0705 20:58:18.050972 13913 layer_factory.hpp:78] Creating layer deconv2_1
I0705 20:58:18.050978 13913 net.cpp:69] Creating Layer deconv2_1
I0705 20:58:18.050981 13913 net.cpp:396] deconv2_1 <- unpool2
I0705 20:58:18.050984 13913 net.cpp:358] deconv2_1 -> deconv2_1
I0705 20:58:18.050988 13913 net.cpp:98] Setting up deconv2_1
I0705 20:58:18.051173 13913 net.cpp:105] Top shape: 512 64 16 16 (8388608)
I0705 20:58:18.051178 13913 layer_factory.hpp:78] Creating layer deconv2_2
I0705 20:58:18.051183 13913 net.cpp:69] Creating Layer deconv2_2
I0705 20:58:18.051185 13913 net.cpp:396] deconv2_2 <- deconv2_1
I0705 20:58:18.051189 13913 net.cpp:358] deconv2_2 -> deconv2_2
I0705 20:58:18.051193 13913 net.cpp:98] Setting up deconv2_2
I0705 20:58:18.051389 13913 net.cpp:105] Top shape: 512 64 16 16 (8388608)
I0705 20:58:18.051395 13913 layer_factory.hpp:78] Creating layer derelu2_2
I0705 20:58:18.051399 13913 net.cpp:69] Creating Layer derelu2_2
I0705 20:58:18.051404 13913 net.cpp:396] derelu2_2 <- deconv2_2
I0705 20:58:18.051409 13913 net.cpp:347] derelu2_2 -> deconv2_2 (in-place)
I0705 20:58:18.051415 13913 net.cpp:98] Setting up derelu2_2
I0705 20:58:18.051419 13913 net.cpp:105] Top shape: 512 64 16 16 (8388608)
I0705 20:58:18.051420 13913 layer_factory.hpp:78] Creating layer unpool1
I0705 20:58:18.051424 13913 net.cpp:69] Creating Layer unpool1
I0705 20:58:18.051426 13913 net.cpp:396] unpool1 <- deconv2_2
I0705 20:58:18.051429 13913 net.cpp:396] unpool1 <- pool1_mask
I0705 20:58:18.051434 13913 net.cpp:358] unpool1 -> unpool1
I0705 20:58:18.051436 13913 net.cpp:98] Setting up unpool1
I0705 20:58:18.051440 13913 net.cpp:105] Top shape: 512 64 32 32 (33554432)
I0705 20:58:18.051442 13913 layer_factory.hpp:78] Creating layer deconv1_1
I0705 20:58:18.051447 13913 net.cpp:69] Creating Layer deconv1_1
I0705 20:58:18.051450 13913 net.cpp:396] deconv1_1 <- unpool1
I0705 20:58:18.051455 13913 net.cpp:358] deconv1_1 -> deconv1_1
I0705 20:58:18.051458 13913 net.cpp:98] Setting up deconv1_1
I0705 20:58:18.051650 13913 net.cpp:105] Top shape: 512 64 32 32 (33554432)
I0705 20:58:18.051654 13913 layer_factory.hpp:78] Creating layer data_reconstruction
I0705 20:58:18.051661 13913 net.cpp:69] Creating Layer data_reconstruction
I0705 20:58:18.051664 13913 net.cpp:396] data_reconstruction <- deconv1_1
I0705 20:58:18.051668 13913 net.cpp:358] data_reconstruction -> data_reconstruction
I0705 20:58:18.051673 13913 net.cpp:98] Setting up data_reconstruction
I0705 20:58:18.052706 13913 net.cpp:105] Top shape: 512 3 32 32 (1572864)
I0705 20:58:18.052713 13913 layer_factory.hpp:78] Creating layer data_reconstruction2
I0705 20:58:18.052719 13913 net.cpp:69] Creating Layer data_reconstruction2
I0705 20:58:18.052722 13913 net.cpp:396] data_reconstruction2 <- data_reconstruction
I0705 20:58:18.052727 13913 net.cpp:358] data_reconstruction2 -> data_reconstruction2
I0705 20:58:18.052731 13913 net.cpp:98] Setting up data_reconstruction2
I0705 20:58:18.052783 13913 net.cpp:105] Top shape: 512 3 32 32 (1572864)
I0705 20:58:18.052788 13913 layer_factory.hpp:78] Creating layer L2_loss
I0705 20:58:18.052793 13913 net.cpp:69] Creating Layer L2_loss
I0705 20:58:18.052794 13913 net.cpp:396] L2_loss <- data_reconstruction2
I0705 20:58:18.052798 13913 net.cpp:396] L2_loss <- data_data_0_split_1
I0705 20:58:18.052801 13913 net.cpp:358] L2_loss -> L2_loss
I0705 20:58:18.052805 13913 net.cpp:98] Setting up L2_loss
I0705 20:58:18.052811 13913 net.cpp:105] Top shape: 1 1 1 1 (1)
I0705 20:58:18.052814 13913 net.cpp:111]     with loss weight 1
I0705 20:58:18.052827 13913 net.cpp:172] L2_loss needs backward computation.
I0705 20:58:18.052830 13913 net.cpp:172] data_reconstruction2 needs backward computation.
I0705 20:58:18.052834 13913 net.cpp:172] data_reconstruction needs backward computation.
I0705 20:58:18.052835 13913 net.cpp:172] deconv1_1 needs backward computation.
…
