…
I0706 00:26:15.927824 29719 solver.cpp:70] Creating training net from net file: proto/reconstructFull_FC0.prototxt
I0706 00:26:15.928457 29719 net.cpp:277] The NetState phase (0) differed from the phase (1) specified by a rule in layer data
I0706 00:26:15.928596 29719 net.cpp:39] Initializing net from parameters: 
name: "miniLCLreconstruction"
layers {
  top: "data"
  name: "data"
  type: DATA
  data_param {
    source: "/dataset/cifar100_lmdb_lab/cifar100_train_lmdb"
    batch_size: 750
    backend: LMDB
  }
  include {
    phase: TRAIN
  }
  transform_param {
    mean_file: "/dataset/cifar100_lmdb_lab/mean.binaryproto"
  }
}
layers {
  bottom: "data"
  top: "conv1_1"
  name: "conv1_1"
  type: CONVOLUTION
  blobs_lr: 0
  blobs_lr: 0
  weight_decay: 0
  weight_decay: 0
  convolution_param {
    num_output: 64
    pad: 1
    kernel_size: 3
    weight_filler {
      type: "xavier"
    }
    bias_filler {
      type: "constant"
      value: 0
    }
  }
}
layers {
  bottom: "conv1_1"
  top: "conv1_1"
  name: "relu1_1"
  type: RELU
}
layers {
  bottom: "conv1_1"
  top: "conv1_2"
  name: "conv1_2"
  type: CONVOLUTION
  blobs_lr: 0
  blobs_lr: 0
  weight_decay: 0
  weight_decay: 0
  convolution_param {
    num_output: 64
    pad: 1
    kernel_size: 3
    weight_filler {
      type: "xavier"
    }
    bias_filler {
      type: "constant"
      value: 0
    }
  }
}
layers {
  bottom: "conv1_2"
  top: "conv1_2"
  name: "relu1_2"
  type: RELU
}
layers {
  bottom: "conv1_2"
  top: "pool1"
  top: "pool1_mask"
  name: "pool1"
  type: POOLING
  pooling_param {
    pool: MAX
    kernel_size: 2
    stride: 2
  }
}
layers {
  bottom: "pool1"
  top: "conv2_1"
  name: "conv2_1"
  type: CONVOLUTION
  blobs_lr: 0
  blobs_lr: 0
  weight_decay: 0
  weight_decay: 0
  convolution_param {
    num_output: 64
    pad: 1
    kernel_size: 3
    weight_filler {
      type: "xavier"
    }
    bias_filler {
      type: "constant"
      value: 0
    }
  }
}
layers {
  bottom: "conv2_1"
  top: "conv2_1"
  name: "relu2_1"
  type: RELU
}
layers {
  bottom: "conv2_1"
  top: "conv2_2"
  name: "conv2_2"
  type: CONVOLUTION
  blobs_lr: 0
  blobs_lr: 0
  weight_decay: 0
  weight_decay: 0
  convolution_param {
    num_output: 64
    pad: 1
    kernel_size: 3
    weight_filler {
      type: "xavier"
    }
    bias_filler {
      type: "constant"
      value: 0
    }
  }
}
layers {
  bottom: "conv2_2"
  top: "conv2_2"
  name: "relu2_2"
  type: RELU
}
layers {
  bottom: "conv2_2"
  top: "pool2"
  top: "pool2_mask"
  name: "pool2"
  type: POOLING
  pooling_param {
    pool: MAX
    kernel_size: 2
    stride: 2
  }
}
layers {
  bottom: "pool2"
  top: "conv3_1"
  name: "conv3_1"
  type: CONVOLUTION
  blobs_lr: 0
  blobs_lr: 0
  weight_decay: 0
  weight_decay: 0
  convolution_param {
    num_output: 64
    pad: 1
    kernel_size: 3
    weight_filler {
      type: "xavier"
    }
    bias_filler {
      type: "constant"
      value: 0
    }
  }
}
layers {
  bottom: "conv3_1"
  top: "conv3_1"
  name: "reul3_1"
  type: RELU
}
layers {
  bottom: "conv3_1"
  top: "conv3_2"
  name: "conv3_2"
  type: CONVOLUTION
  blobs_lr: 0
  blobs_lr: 0
  weight_decay: 0
  weight_decay: 0
  convolution_param {
    num_output: 64
    pad: 1
    kernel_size: 3
    weight_filler {
      type: "xavier"
    }
    bias_filler {
      type: "constant"
      value: 0
    }
  }
}
layers {
  bottom: "conv3_2"
  top: "conv3_2"
  name: "reul3_2"
  type: RELU
}
layers {
  bottom: "conv3_2"
  top: "pool3"
  top: "pool3_mask"
  name: "pool3"
  type: POOLING
  pooling_param {
    pool: MAX
    kernel_size: 2
    stride: 2
  }
}
layers {
  bottom: "pool3"
  top: "middleConv0"
  name: "middleConv0"
  type: CONVOLUTION
  blobs_lr: 0
  blobs_lr: 0
  weight_decay: 0
  weight_decay: 0
  convolution_param {
    num_output: 50
    kernel_size: 4
    weight_filler {
      type: "constant"
      value: 0
    }
    bias_filler {
      type: "constant"
      value: 0
    }
  }
}
layers {
  bottom: "middleConv0"
  top: "deconv4_1"
  name: "deconv4_1"
  type: DECONVOLUTION
  blobs_lr: 1
  blobs_lr: 2
  weight_decay: 0
  weight_decay: 0
  convolution_param {
    num_output: 64
    pad: 0
    kernel_size: 4
    weight_filler {
      type: "xavier"
    }
    bias_filler {
      type: "constant"
      value: 0
    }
  }
}
layers {
  bottom: "deconv4_1"
  bottom: "pool3_mask"
  top: "unpool3"
  name: "unpool3"
  type: UNPOOLING
  unpooling_param {
    unpool: MAX
    kernel_size: 2
    stride: 2
    unpool_size: 8
  }
}
layers {
  bottom: "unpool3"
  top: "deconv3_1"
  name: "deconv3_1"
  type: DECONVOLUTION
  blobs_lr: 1
  blobs_lr: 2
  weight_decay: 0
  weight_decay: 0
  convolution_param {
    num_output: 64
    pad: 1
    kernel_size: 3
    weight_filler {
      type: "xavier"
    }
    bias_filler {
      type: "constant"
      value: 0
    }
  }
}
layers {
  bottom: "deconv3_1"
  top: "deconv3_2"
  name: "deconv3_2"
  type: DECONVOLUTION
  blobs_lr: 1
  blobs_lr: 2
  weight_decay: 0
  weight_decay: 0
  convolution_param {
    num_output: 64
    pad: 1
    kernel_size: 3
    weight_filler {
      type: "xavier"
    }
    bias_filler {
      type: "constant"
      value: 0
    }
  }
}
layers {
  bottom: "deconv3_2"
  top: "deconv3_2"
  name: "dereul3_2"
  type: RELU
}
layers {
  bottom: "deconv3_2"
  bottom: "pool2_mask"
  top: "unpool2"
  name: "unpool2"
  type: UNPOOLING
  unpooling_param {
    unpool: MAX
    kernel_size: 2
    stride: 2
    unpool_size: 16
  }
}
layers {
  bottom: "unpool2"
  top: "deconv2_1"
  name: "deconv2_1"
  type: DECONVOLUTION
  blobs_lr: 1
  blobs_lr: 2
  weight_decay: 0
  weight_decay: 0
  convolution_param {
    num_output: 64
    pad: 1
    kernel_size: 3
    weight_filler {
      type: "xavier"
    }
    bias_filler {
      type: "constant"
      value: 0
    }
  }
}
layers {
  bottom: "deconv2_1"
  top: "deconv2_2"
  name: "deconv2_2"
  type: DECONVOLUTION
  blobs_lr: 1
  blobs_lr: 2
  weight_decay: 0
  weight_decay: 0
  convolution_param {
    num_output: 64
    pad: 1
    kernel_size: 3
    weight_filler {
      type: "xavier"
    }
    bias_filler {
      type: "constant"
      value: 0
    }
  }
}
layers {
  bottom: "deconv2_2"
  top: "deconv2_2"
  name: "derelu2_2"
  type: RELU
}
layers {
  bottom: "deconv2_2"
  bottom: "pool1_mask"
  top: "unpool1"
  name: "unpool1"
  type: UNPOOLING
  unpooling_param {
    unpool: MAX
    kernel_size: 2
    stride: 2
    unpool_size: 32
  }
}
layers {
  bottom: "unpool1"
  top: "deconv1_1"
  name: "deconv1_1"
  type: DECONVOLUTION
  blobs_lr: 1
  blobs_lr: 2
  weight_decay: 0
  weight_decay: 0
  convolution_param {
    num_output: 64
    pad: 1
    kernel_size: 3
    weight_filler {
      type: "xavier"
    }
    bias_filler {
      type: "constant"
      value: 0
    }
  }
}
layers {
  bottom: "deconv1_1"
  top: "data_reconstruction"
  name: "data_reconstruction"
  type: LOCAL
  blobs_lr: 1
  blobs_lr: 0
  weight_decay: 0
  weight_decay: 0
  local_param {
    num_output: 3
    pad: 0
    kernel_size: 1
    weight_filler {
      type: "xavier"
    }
    bias_filler {
      type: "constant"
      value: 0
    }
  }
}
layers {
  bottom: "data_reconstruction"
  top: "data_reconstruction2"
  name: "data_reconstruction2"
  type: LOCAL
  blobs_lr: 1
  blobs_lr: 0
  weight_decay: 0
  weight_decay: 0
  local_param {
    num_output: 3
    pad: 0
    kernel_size: 1
    weight_filler {
      type: "xavier"
    }
    bias_filler {
      type: "constant"
      value: 0
    }
  }
}
layers {
  bottom: "data_reconstruction2"
  bottom: "data"
  top: "L2_loss"
  name: "L2_loss"
  type: EUCLIDEAN_LOSS
}
state {
  phase: TRAIN
}
I0706 00:26:15.928696 29719 layer_factory.hpp:78] Creating layer data
I0706 00:26:15.928709 29719 data_transformer.cpp:25] Loading mean file from/dataset/cifar100_lmdb_lab/mean.binaryproto
I0706 00:26:15.928757 29719 net.cpp:69] Creating Layer data
I0706 00:26:15.928767 29719 net.cpp:358] data -> data
I0706 00:26:15.928776 29719 net.cpp:98] Setting up data
I0706 00:26:15.928778 29719 data_layer.cpp:32] Opening dataset /dataset/cifar100_lmdb_lab/cifar100_train_lmdb
I0706 00:26:15.928850 29719 data_layer.cpp:71] output data size: 750,3,32,32
I0706 00:26:15.930066 29719 net.cpp:105] Top shape: 750 3 32 32 (2304000)
I0706 00:26:15.930088 29719 layer_factory.hpp:78] Creating layer data_data_0_split
I0706 00:26:15.930097 29719 net.cpp:69] Creating Layer data_data_0_split
I0706 00:26:15.930100 29719 net.cpp:396] data_data_0_split <- data
I0706 00:26:15.930105 29719 net.cpp:358] data_data_0_split -> data_data_0_split_0
I0706 00:26:15.930114 29719 net.cpp:358] data_data_0_split -> data_data_0_split_1
I0706 00:26:15.930117 29719 net.cpp:98] Setting up data_data_0_split
I0706 00:26:15.930122 29719 net.cpp:105] Top shape: 750 3 32 32 (2304000)
I0706 00:26:15.930124 29719 net.cpp:105] Top shape: 750 3 32 32 (2304000)
I0706 00:26:15.930129 29719 layer_factory.hpp:78] Creating layer conv1_1
I0706 00:26:15.930135 29719 net.cpp:69] Creating Layer conv1_1
I0706 00:26:15.930137 29719 net.cpp:396] conv1_1 <- data_data_0_split_0
I0706 00:26:15.930146 29719 net.cpp:358] conv1_1 -> conv1_1
I0706 00:26:15.930151 29719 net.cpp:98] Setting up conv1_1
I0706 00:26:15.930451 29719 net.cpp:105] Top shape: 750 64 32 32 (49152000)
I0706 00:26:15.930461 29719 layer_factory.hpp:78] Creating layer relu1_1
I0706 00:26:15.930465 29719 net.cpp:69] Creating Layer relu1_1
I0706 00:26:15.930467 29719 net.cpp:396] relu1_1 <- conv1_1
I0706 00:26:15.930472 29719 net.cpp:347] relu1_1 -> conv1_1 (in-place)
I0706 00:26:15.930475 29719 net.cpp:98] Setting up relu1_1
I0706 00:26:15.930479 29719 net.cpp:105] Top shape: 750 64 32 32 (49152000)
I0706 00:26:15.930481 29719 layer_factory.hpp:78] Creating layer conv1_2
I0706 00:26:15.930485 29719 net.cpp:69] Creating Layer conv1_2
I0706 00:26:15.930488 29719 net.cpp:396] conv1_2 <- conv1_1
I0706 00:26:15.930492 29719 net.cpp:358] conv1_2 -> conv1_2
I0706 00:26:15.930496 29719 net.cpp:98] Setting up conv1_2
I0706 00:26:15.930691 29719 net.cpp:105] Top shape: 750 64 32 32 (49152000)
I0706 00:26:15.930697 29719 layer_factory.hpp:78] Creating layer relu1_2
I0706 00:26:15.930701 29719 net.cpp:69] Creating Layer relu1_2
I0706 00:26:15.930704 29719 net.cpp:396] relu1_2 <- conv1_2
I0706 00:26:15.930707 29719 net.cpp:347] relu1_2 -> conv1_2 (in-place)
I0706 00:26:15.930711 29719 net.cpp:98] Setting up relu1_2
I0706 00:26:15.930713 29719 net.cpp:105] Top shape: 750 64 32 32 (49152000)
I0706 00:26:15.930716 29719 layer_factory.hpp:78] Creating layer pool1
I0706 00:26:15.930721 29719 net.cpp:69] Creating Layer pool1
I0706 00:26:15.930723 29719 net.cpp:396] pool1 <- conv1_2
I0706 00:26:15.930727 29719 net.cpp:358] pool1 -> pool1
I0706 00:26:15.930730 29719 net.cpp:358] pool1 -> pool1_mask
I0706 00:26:15.930734 29719 net.cpp:98] Setting up pool1
I0706 00:26:15.930739 29719 net.cpp:105] Top shape: 750 64 16 16 (12288000)
I0706 00:26:15.930742 29719 net.cpp:105] Top shape: 750 64 16 16 (12288000)
I0706 00:26:15.930744 29719 layer_factory.hpp:78] Creating layer conv2_1
I0706 00:26:15.930748 29719 net.cpp:69] Creating Layer conv2_1
I0706 00:26:15.930752 29719 net.cpp:396] conv2_1 <- pool1
I0706 00:26:15.930755 29719 net.cpp:358] conv2_1 -> conv2_1
I0706 00:26:15.930759 29719 net.cpp:98] Setting up conv2_1
I0706 00:26:15.930950 29719 net.cpp:105] Top shape: 750 64 16 16 (12288000)
I0706 00:26:15.930956 29719 layer_factory.hpp:78] Creating layer relu2_1
I0706 00:26:15.930960 29719 net.cpp:69] Creating Layer relu2_1
I0706 00:26:15.930963 29719 net.cpp:396] relu2_1 <- conv2_1
I0706 00:26:15.930968 29719 net.cpp:347] relu2_1 -> conv2_1 (in-place)
I0706 00:26:15.930970 29719 net.cpp:98] Setting up relu2_1
I0706 00:26:15.930972 29719 net.cpp:105] Top shape: 750 64 16 16 (12288000)
I0706 00:26:15.930975 29719 layer_factory.hpp:78] Creating layer conv2_2
I0706 00:26:15.930984 29719 net.cpp:69] Creating Layer conv2_2
I0706 00:26:15.930987 29719 net.cpp:396] conv2_2 <- conv2_1
I0706 00:26:15.931000 29719 net.cpp:358] conv2_2 -> conv2_2
I0706 00:26:15.931005 29719 net.cpp:98] Setting up conv2_2
I0706 00:26:15.931193 29719 net.cpp:105] Top shape: 750 64 16 16 (12288000)
I0706 00:26:15.931198 29719 layer_factory.hpp:78] Creating layer relu2_2
I0706 00:26:15.931201 29719 net.cpp:69] Creating Layer relu2_2
I0706 00:26:15.931205 29719 net.cpp:396] relu2_2 <- conv2_2
I0706 00:26:15.931207 29719 net.cpp:347] relu2_2 -> conv2_2 (in-place)
I0706 00:26:15.931210 29719 net.cpp:98] Setting up relu2_2
I0706 00:26:15.931213 29719 net.cpp:105] Top shape: 750 64 16 16 (12288000)
I0706 00:26:15.931216 29719 layer_factory.hpp:78] Creating layer pool2
I0706 00:26:15.931219 29719 net.cpp:69] Creating Layer pool2
I0706 00:26:15.931221 29719 net.cpp:396] pool2 <- conv2_2
I0706 00:26:15.931224 29719 net.cpp:358] pool2 -> pool2
I0706 00:26:15.931228 29719 net.cpp:358] pool2 -> pool2_mask
I0706 00:26:15.931231 29719 net.cpp:98] Setting up pool2
I0706 00:26:15.931234 29719 net.cpp:105] Top shape: 750 64 8 8 (3072000)
I0706 00:26:15.931237 29719 net.cpp:105] Top shape: 750 64 8 8 (3072000)
I0706 00:26:15.931239 29719 layer_factory.hpp:78] Creating layer conv3_1
I0706 00:26:15.931244 29719 net.cpp:69] Creating Layer conv3_1
I0706 00:26:15.931246 29719 net.cpp:396] conv3_1 <- pool2
I0706 00:26:15.931251 29719 net.cpp:358] conv3_1 -> conv3_1
I0706 00:26:15.931254 29719 net.cpp:98] Setting up conv3_1
I0706 00:26:15.931445 29719 net.cpp:105] Top shape: 750 64 8 8 (3072000)
I0706 00:26:15.931452 29719 layer_factory.hpp:78] Creating layer reul3_1
I0706 00:26:15.931454 29719 net.cpp:69] Creating Layer reul3_1
I0706 00:26:15.931457 29719 net.cpp:396] reul3_1 <- conv3_1
I0706 00:26:15.931462 29719 net.cpp:347] reul3_1 -> conv3_1 (in-place)
I0706 00:26:15.931465 29719 net.cpp:98] Setting up reul3_1
I0706 00:26:15.931468 29719 net.cpp:105] Top shape: 750 64 8 8 (3072000)
I0706 00:26:15.931470 29719 layer_factory.hpp:78] Creating layer conv3_2
I0706 00:26:15.931474 29719 net.cpp:69] Creating Layer conv3_2
I0706 00:26:15.931476 29719 net.cpp:396] conv3_2 <- conv3_1
I0706 00:26:15.931483 29719 net.cpp:358] conv3_2 -> conv3_2
I0706 00:26:15.931486 29719 net.cpp:98] Setting up conv3_2
I0706 00:26:15.931694 29719 net.cpp:105] Top shape: 750 64 8 8 (3072000)
I0706 00:26:15.931699 29719 layer_factory.hpp:78] Creating layer reul3_2
I0706 00:26:15.931704 29719 net.cpp:69] Creating Layer reul3_2
I0706 00:26:15.931706 29719 net.cpp:396] reul3_2 <- conv3_2
I0706 00:26:15.931710 29719 net.cpp:347] reul3_2 -> conv3_2 (in-place)
I0706 00:26:15.931712 29719 net.cpp:98] Setting up reul3_2
I0706 00:26:15.931715 29719 net.cpp:105] Top shape: 750 64 8 8 (3072000)
I0706 00:26:15.931717 29719 layer_factory.hpp:78] Creating layer pool3
I0706 00:26:15.931722 29719 net.cpp:69] Creating Layer pool3
I0706 00:26:15.931725 29719 net.cpp:396] pool3 <- conv3_2
I0706 00:26:15.931728 29719 net.cpp:358] pool3 -> pool3
I0706 00:26:15.931732 29719 net.cpp:358] pool3 -> pool3_mask
I0706 00:26:15.931735 29719 net.cpp:98] Setting up pool3
I0706 00:26:15.931738 29719 net.cpp:105] Top shape: 750 64 4 4 (768000)
I0706 00:26:15.931741 29719 net.cpp:105] Top shape: 750 64 4 4 (768000)
I0706 00:26:15.931743 29719 layer_factory.hpp:78] Creating layer middleConv0
I0706 00:26:15.931748 29719 net.cpp:69] Creating Layer middleConv0
I0706 00:26:15.931751 29719 net.cpp:396] middleConv0 <- pool3
I0706 00:26:15.931754 29719 net.cpp:358] middleConv0 -> middleConv0
I0706 00:26:15.931757 29719 net.cpp:98] Setting up middleConv0
I0706 00:26:15.931813 29719 net.cpp:105] Top shape: 750 50 1 1 (37500)
I0706 00:26:15.931818 29719 layer_factory.hpp:78] Creating layer deconv4_1
I0706 00:26:15.931824 29719 net.cpp:69] Creating Layer deconv4_1
I0706 00:26:15.931826 29719 net.cpp:396] deconv4_1 <- middleConv0
I0706 00:26:15.931831 29719 net.cpp:358] deconv4_1 -> deconv4_1
I0706 00:26:15.931835 29719 net.cpp:98] Setting up deconv4_1
I0706 00:26:15.932090 29719 net.cpp:105] Top shape: 750 64 4 4 (768000)
I0706 00:26:15.932097 29719 layer_factory.hpp:78] Creating layer unpool3
I0706 00:26:15.932106 29719 net.cpp:69] Creating Layer unpool3
I0706 00:26:15.932109 29719 net.cpp:396] unpool3 <- deconv4_1
I0706 00:26:15.932112 29719 net.cpp:396] unpool3 <- pool3_mask
I0706 00:26:15.932116 29719 net.cpp:358] unpool3 -> unpool3
I0706 00:26:15.932119 29719 net.cpp:98] Setting up unpool3
I0706 00:26:15.932126 29719 net.cpp:105] Top shape: 750 64 8 8 (3072000)
I0706 00:26:15.932137 29719 layer_factory.hpp:78] Creating layer deconv3_1
I0706 00:26:15.932143 29719 net.cpp:69] Creating Layer deconv3_1
I0706 00:26:15.932145 29719 net.cpp:396] deconv3_1 <- unpool3
I0706 00:26:15.932149 29719 net.cpp:358] deconv3_1 -> deconv3_1
I0706 00:26:15.932153 29719 net.cpp:98] Setting up deconv3_1
I0706 00:26:15.932343 29719 net.cpp:105] Top shape: 750 64 8 8 (3072000)
I0706 00:26:15.932348 29719 layer_factory.hpp:78] Creating layer deconv3_2
I0706 00:26:15.932358 29719 net.cpp:69] Creating Layer deconv3_2
I0706 00:26:15.932361 29719 net.cpp:396] deconv3_2 <- deconv3_1
I0706 00:26:15.932365 29719 net.cpp:358] deconv3_2 -> deconv3_2
I0706 00:26:15.932369 29719 net.cpp:98] Setting up deconv3_2
I0706 00:26:15.932557 29719 net.cpp:105] Top shape: 750 64 8 8 (3072000)
I0706 00:26:15.932562 29719 layer_factory.hpp:78] Creating layer dereul3_2
I0706 00:26:15.932565 29719 net.cpp:69] Creating Layer dereul3_2
I0706 00:26:15.932567 29719 net.cpp:396] dereul3_2 <- deconv3_2
I0706 00:26:15.932572 29719 net.cpp:347] dereul3_2 -> deconv3_2 (in-place)
I0706 00:26:15.932575 29719 net.cpp:98] Setting up dereul3_2
I0706 00:26:15.932579 29719 net.cpp:105] Top shape: 750 64 8 8 (3072000)
I0706 00:26:15.932580 29719 layer_factory.hpp:78] Creating layer unpool2
I0706 00:26:15.932585 29719 net.cpp:69] Creating Layer unpool2
I0706 00:26:15.932586 29719 net.cpp:396] unpool2 <- deconv3_2
I0706 00:26:15.932590 29719 net.cpp:396] unpool2 <- pool2_mask
I0706 00:26:15.932592 29719 net.cpp:358] unpool2 -> unpool2
I0706 00:26:15.932596 29719 net.cpp:98] Setting up unpool2
I0706 00:26:15.932600 29719 net.cpp:105] Top shape: 750 64 16 16 (12288000)
I0706 00:26:15.932601 29719 layer_factory.hpp:78] Creating layer deconv2_1
I0706 00:26:15.932606 29719 net.cpp:69] Creating Layer deconv2_1
I0706 00:26:15.932608 29719 net.cpp:396] deconv2_1 <- unpool2
I0706 00:26:15.932612 29719 net.cpp:358] deconv2_1 -> deconv2_1
I0706 00:26:15.932615 29719 net.cpp:98] Setting up deconv2_1
I0706 00:26:15.932819 29719 net.cpp:105] Top shape: 750 64 16 16 (12288000)
I0706 00:26:15.932826 29719 layer_factory.hpp:78] Creating layer deconv2_2
I0706 00:26:15.932831 29719 net.cpp:69] Creating Layer deconv2_2
I0706 00:26:15.932832 29719 net.cpp:396] deconv2_2 <- deconv2_1
I0706 00:26:15.932837 29719 net.cpp:358] deconv2_2 -> deconv2_2
I0706 00:26:15.932839 29719 net.cpp:98] Setting up deconv2_2
I0706 00:26:15.933040 29719 net.cpp:105] Top shape: 750 64 16 16 (12288000)
I0706 00:26:15.933046 29719 layer_factory.hpp:78] Creating layer derelu2_2
I0706 00:26:15.933050 29719 net.cpp:69] Creating Layer derelu2_2
I0706 00:26:15.933053 29719 net.cpp:396] derelu2_2 <- deconv2_2
I0706 00:26:15.933055 29719 net.cpp:347] derelu2_2 -> deconv2_2 (in-place)
I0706 00:26:15.933059 29719 net.cpp:98] Setting up derelu2_2
I0706 00:26:15.933061 29719 net.cpp:105] Top shape: 750 64 16 16 (12288000)
I0706 00:26:15.933064 29719 layer_factory.hpp:78] Creating layer unpool1
I0706 00:26:15.933068 29719 net.cpp:69] Creating Layer unpool1
I0706 00:26:15.933069 29719 net.cpp:396] unpool1 <- deconv2_2
I0706 00:26:15.933073 29719 net.cpp:396] unpool1 <- pool1_mask
I0706 00:26:15.933076 29719 net.cpp:358] unpool1 -> unpool1
I0706 00:26:15.933080 29719 net.cpp:98] Setting up unpool1
I0706 00:26:15.933084 29719 net.cpp:105] Top shape: 750 64 32 32 (49152000)
I0706 00:26:15.933085 29719 layer_factory.hpp:78] Creating layer deconv1_1
I0706 00:26:15.933089 29719 net.cpp:69] Creating Layer deconv1_1
I0706 00:26:15.933091 29719 net.cpp:396] deconv1_1 <- unpool1
I0706 00:26:15.933095 29719 net.cpp:358] deconv1_1 -> deconv1_1
I0706 00:26:15.933102 29719 net.cpp:98] Setting up deconv1_1
I0706 00:26:15.933289 29719 net.cpp:105] Top shape: 750 64 32 32 (49152000)
I0706 00:26:15.933297 29719 layer_factory.hpp:78] Creating layer data_reconstruction
I0706 00:26:15.933307 29719 net.cpp:69] Creating Layer data_reconstruction
I0706 00:26:15.933310 29719 net.cpp:396] data_reconstruction <- deconv1_1
I0706 00:26:15.933315 29719 net.cpp:358] data_reconstruction -> data_reconstruction
I0706 00:26:15.933318 29719 net.cpp:98] Setting up data_reconstruction
I0706 00:26:15.934325 29719 net.cpp:105] Top shape: 750 3 32 32 (2304000)
I0706 00:26:15.934334 29719 layer_factory.hpp:78] Creating layer data_reconstruction2
I0706 00:26:15.934337 29719 net.cpp:69] Creating Layer data_reconstruction2
I0706 00:26:15.934340 29719 net.cpp:396] data_reconstruction2 <- data_reconstruction
I0706 00:26:15.934345 29719 net.cpp:358] data_reconstruction2 -> data_reconstruction2
I0706 00:26:15.934348 29719 net.cpp:98] Setting up data_reconstruction2
I0706 00:26:15.934403 29719 net.cpp:105] Top shape: 750 3 32 32 (2304000)
I0706 00:26:15.934408 29719 layer_factory.hpp:78] Creating layer L2_loss
I0706 00:26:15.934412 29719 net.cpp:69] Creating Layer L2_loss
I0706 00:26:15.934414 29719 net.cpp:396] L2_loss <- data_reconstruction2
I0706 00:26:15.934417 29719 net.cpp:396] L2_loss <- data_data_0_split_1
I0706 00:26:15.934422 29719 net.cpp:358] L2_loss -> L2_loss
I0706 00:26:15.934425 29719 net.cpp:98] Setting up L2_loss
I0706 00:26:15.934432 29719 net.cpp:105] Top shape: 1 1 1 1 (1)
I0706 00:26:15.934433 29719 net.cpp:111]     with loss weight 1
I0706 00:26:15.934448 29719 net.cpp:172] L2_loss needs backward computation.
I0706 00:26:15.934450 29719 net.cpp:172] data_reconstruction2 needs backward computation.
I0706 00:26:15.934453 29719 net.cpp:172] data_reconstruction needs backward computation.
I0706 00:26:15.934455 29719 net.cpp:172] deconv1_1 needs backward computation.
…
