…
 initialize libdc1394
I0706 10:18:43.529016 27256 caffe.cpp:138] Use CPU.
I0706 10:18:43.647940 27256 net.cpp:277] The NetState phase (1) differed from the phase (0) specified by a rule in layer data
I0706 10:18:43.648099 27256 net.cpp:39] Initializing net from parameters: 
name: "miniLCLreconstruction"
layers {
  top: "data"
  name: "data"
  type: DATA
  data_param {
    source: "/dataset/cifar100_lmdb_lab/cifar100_test_lmdb"
    batch_size: 256
    backend: LMDB
  }
  include {
    phase: TEST
  }
  transform_param {
    mean_file: "/dataset/cifar100_lmdb_lab/mean.binaryproto"
  }
}
layers {
  bottom: "data"
  top: "conv1_1"
  name: "conv1_1"
  type: CONVOLUTION
  blobs_lr: 0
  blobs_lr: 0
  weight_decay: 0
  weight_decay: 0
  convolution_param {
    num_output: 64
    pad: 1
    kernel_size: 3
    weight_filler {
      type: "xavier"
    }
    bias_filler {
      type: "constant"
      value: 0
    }
  }
}
layers {
  bottom: "conv1_1"
  top: "conv1_1"
  name: "relu1_1"
  type: RELU
}
layers {
  bottom: "conv1_1"
  top: "conv1_2"
  name: "conv1_2"
  type: CONVOLUTION
  blobs_lr: 0
  blobs_lr: 0
  weight_decay: 0
  weight_decay: 0
  convolution_param {
    num_output: 64
    pad: 1
    kernel_size: 3
    weight_filler {
      type: "xavier"
    }
    bias_filler {
      type: "constant"
      value: 0
    }
  }
}
layers {
  bottom: "conv1_2"
  top: "conv1_2"
  name: "relu1_2"
  type: RELU
}
layers {
  bottom: "conv1_2"
  top: "pool1"
  top: "pool1_mask"
  name: "pool1"
  type: POOLING
  pooling_param {
    pool: MAX
    kernel_size: 2
    stride: 2
  }
}
layers {
  bottom: "pool1"
  top: "conv2_1"
  name: "conv2_1"
  type: CONVOLUTION
  blobs_lr: 0
  blobs_lr: 0
  weight_decay: 0
  weight_decay: 0
  convolution_param {
    num_output: 64
    pad: 1
    kernel_size: 3
    weight_filler {
      type: "xavier"
    }
    bias_filler {
      type: "constant"
      value: 0
    }
  }
}
layers {
  bottom: "conv2_1"
  top: "conv2_1"
  name: "relu2_1"
  type: RELU
}
layers {
  bottom: "conv2_1"
  top: "conv2_2"
  name: "conv2_2"
  type: CONVOLUTION
  blobs_lr: 0
  blobs_lr: 0
  weight_decay: 0
  weight_decay: 0
  convolution_param {
    num_output: 64
    pad: 1
    kernel_size: 3
    weight_filler {
      type: "xavier"
    }
    bias_filler {
      type: "constant"
      value: 0
    }
  }
}
layers {
  bottom: "conv2_2"
  top: "conv2_2"
  name: "relu2_2"
  type: RELU
}
layers {
  bottom: "conv2_2"
  top: "pool2"
  top: "pool2_mask"
  name: "pool2"
  type: POOLING
  pooling_param {
    pool: MAX
    kernel_size: 2
    stride: 2
  }
}
layers {
  bottom: "pool2"
  top: "conv3_1"
  name: "conv3_1"
  type: CONVOLUTION
  blobs_lr: 0
  blobs_lr: 0
  weight_decay: 0
  weight_decay: 0
  convolution_param {
    num_output: 64
    pad: 1
    kernel_size: 3
    weight_filler {
      type: "xavier"
    }
    bias_filler {
      type: "constant"
      value: 0
    }
  }
}
layers {
  bottom: "conv3_1"
  top: "conv3_1"
  name: "reul3_1"
  type: RELU
}
layers {
  bottom: "conv3_1"
  top: "conv3_2"
  name: "conv3_2"
  type: CONVOLUTION
  blobs_lr: 0
  blobs_lr: 0
  weight_decay: 0
  weight_decay: 0
  convolution_param {
    num_output: 64
    pad: 1
    kernel_size: 3
    weight_filler {
      type: "xavier"
    }
    bias_filler {
      type: "constant"
      value: 0
    }
  }
}
layers {
  bottom: "conv3_2"
  top: "conv3_2"
  name: "reul3_2"
  type: RELU
}
layers {
  bottom: "conv3_2"
  top: "pool3"
  top: "pool3_mask"
  name: "pool3"
  type: POOLING
  pooling_param {
    pool: MAX
    kernel_size: 2
    stride: 2
  }
}
layers {
  bottom: "pool3"
  top: "middleConv0"
  name: "middleConv0"
  type: CONVOLUTION
  blobs_lr: 0
  blobs_lr: 0
  weight_decay: 0
  weight_decay: 0
  convolution_param {
    num_output: 50
    kernel_size: 4
    weight_filler {
      type: "constant"
      value: 0
    }
    bias_filler {
      type: "constant"
      value: 0
    }
  }
}
layers {
  bottom: "middleConv0"
  top: "deconv4_1"
  name: "deconv4_1"
  type: DECONVOLUTION
  blobs_lr: 1
  blobs_lr: 2
  weight_decay: 0
  weight_decay: 0
  convolution_param {
    num_output: 64
    pad: 0
    kernel_size: 4
    weight_filler {
      type: "xavier"
    }
    bias_filler {
      type: "constant"
      value: 0
    }
  }
}
layers {
  bottom: "deconv4_1"
  bottom: "pool3_mask"
  top: "unpool3"
  name: "unpool3"
  type: UNPOOLING
  unpooling_param {
    unpool: MAX
    kernel_size: 2
    stride: 2
    unpool_size: 8
  }
}
layers {
  bottom: "unpool3"
  top: "deconv3_1"
  name: "deconv3_1"
  type: DECONVOLUTION
  blobs_lr: 1
  blobs_lr: 2
  weight_decay: 0
  weight_decay: 0
  convolution_param {
    num_output: 64
    pad: 1
    kernel_size: 3
    weight_filler {
      type: "xavier"
    }
    bias_filler {
      type: "constant"
      value: 0
    }
  }
}
layers {
  bottom: "deconv3_1"
  top: "deconv3_2"
  name: "deconv3_2"
  type: DECONVOLUTION
  blobs_lr: 1
  blobs_lr: 2
  weight_decay: 0
  weight_decay: 0
  convolution_param {
    num_output: 64
    pad: 1
    kernel_size: 3
    weight_filler {
      type: "xavier"
    }
    bias_filler {
      type: "constant"
      value: 0
    }
  }
}
layers {
  bottom: "deconv3_2"
  top: "deconv3_2"
  name: "dereul3_2"
  type: RELU
}
layers {
  bottom: "deconv3_2"
  bottom: "pool2_mask"
  top: "unpool2"
  name: "unpool2"
  type: UNPOOLING
  unpooling_param {
    unpool: MAX
    kernel_size: 2
    stride: 2
    unpool_size: 16
  }
}
layers {
  bottom: "unpool2"
  top: "deconv2_1"
  name: "deconv2_1"
  type: DECONVOLUTION
  blobs_lr: 1
  blobs_lr: 2
  weight_decay: 0
  weight_decay: 0
  convolution_param {
    num_output: 64
    pad: 1
    kernel_size: 3
    weight_filler {
      type: "xavier"
    }
    bias_filler {
      type: "constant"
      value: 0
    }
  }
}
layers {
  bottom: "deconv2_1"
  top: "deconv2_2"
  name: "deconv2_2"
  type: DECONVOLUTION
  blobs_lr: 1
  blobs_lr: 2
  weight_decay: 0
  weight_decay: 0
  convolution_param {
    num_output: 64
    pad: 1
    kernel_size: 3
    weight_filler {
      type: "xavier"
    }
    bias_filler {
      type: "constant"
      value: 0
    }
  }
}
layers {
  bottom: "deconv2_2"
  top: "deconv2_2"
  name: "derelu2_2"
  type: RELU
}
layers {
  bottom: "deconv2_2"
  bottom: "pool1_mask"
  top: "unpool1"
  name: "unpool1"
  type: UNPOOLING
  unpooling_param {
    unpool: MAX
    kernel_size: 2
    stride: 2
    unpool_size: 32
  }
}
layers {
  bottom: "unpool1"
  top: "deconv1_1"
  name: "deconv1_1"
  type: DECONVOLUTION
  blobs_lr: 1
  blobs_lr: 2
  weight_decay: 0
  weight_decay: 0
  convolution_param {
    num_output: 64
    pad: 1
    kernel_size: 3
    weight_filler {
      type: "xavier"
    }
    bias_filler {
      type: "constant"
      value: 0
    }
  }
}
layers {
  bottom: "deconv1_1"
  top: "data_reconstruction"
  name: "data_reconstruction"
  type: LOCAL
  blobs_lr: 1
  blobs_lr: 0
  weight_decay: 0
  weight_decay: 0
  local_param {
    num_output: 3
    pad: 0
    kernel_size: 1
    weight_filler {
      type: "xavier"
    }
    bias_filler {
      type: "constant"
      value: 0
    }
  }
}
layers {
  bottom: "data_reconstruction"
  top: "data_reconstruction2"
  name: "data_reconstruction2"
  type: LOCAL
  blobs_lr: 1
  blobs_lr: 0
  weight_decay: 0
  weight_decay: 0
  local_param {
    num_output: 3
    pad: 0
    kernel_size: 1
    weight_filler {
      type: "xavier"
    }
    bias_filler {
      type: "constant"
      value: 0
    }
  }
}
layers {
  bottom: "data_reconstruction2"
  bottom: "data"
  top: "L2_loss"
  name: "L2_loss"
  type: EUCLIDEAN_LOSS
}
I0706 10:18:43.648237 27256 layer_factory.hpp:78] Creating layer data
I0706 10:18:43.648252 27256 data_transformer.cpp:25] Loading mean file from/dataset/cifar100_lmdb_lab/mean.binaryproto
I0706 10:18:43.648301 27256 net.cpp:69] Creating Layer data
I0706 10:18:43.648308 27256 net.cpp:358] data -> data
I0706 10:18:43.648314 27256 net.cpp:98] Setting up data
I0706 10:18:43.648318 27256 data_layer.cpp:32] Opening dataset /dataset/cifar100_lmdb_lab/cifar100_test_lmdb
I0706 10:18:43.648382 27256 data_layer.cpp:71] output data size: 256,3,32,32
I0706 10:18:43.648968 27256 net.cpp:105] Top shape: 256 3 32 32 (786432)
I0706 10:18:43.648977 27256 layer_factory.hpp:78] Creating layer data_data_0_split
I0706 10:18:43.648982 27256 net.cpp:69] Creating Layer data_data_0_split
I0706 10:18:43.648990 27256 net.cpp:396] data_data_0_split <- data
I0706 10:18:43.648996 27256 net.cpp:358] data_data_0_split -> data_data_0_split_0
I0706 10:18:43.649001 27256 net.cpp:358] data_data_0_split -> data_data_0_split_1
I0706 10:18:43.649005 27256 net.cpp:98] Setting up data_data_0_split
I0706 10:18:43.649008 27256 net.cpp:105] Top shape: 256 3 32 32 (786432)
I0706 10:18:43.649011 27256 net.cpp:105] Top shape: 256 3 32 32 (786432)
I0706 10:18:43.649013 27256 layer_factory.hpp:78] Creating layer conv1_1
I0706 10:18:43.649019 27256 net.cpp:69] Creating Layer conv1_1
I0706 10:18:43.649021 27256 net.cpp:396] conv1_1 <- data_data_0_split_0
I0706 10:18:43.649029 27256 net.cpp:358] conv1_1 -> conv1_1
I0706 10:18:43.649032 27256 net.cpp:98] Setting up conv1_1
I0706 10:18:43.649302 27256 net.cpp:105] Top shape: 256 64 32 32 (16777216)
I0706 10:18:43.649310 27256 layer_factory.hpp:78] Creating layer relu1_1
I0706 10:18:43.649313 27256 net.cpp:69] Creating Layer relu1_1
I0706 10:18:43.649315 27256 net.cpp:396] relu1_1 <- conv1_1
I0706 10:18:43.649319 27256 net.cpp:347] relu1_1 -> conv1_1 (in-place)
I0706 10:18:43.649322 27256 net.cpp:98] Setting up relu1_1
I0706 10:18:43.649325 27256 net.cpp:105] Top shape: 256 64 32 32 (16777216)
I0706 10:18:43.649327 27256 layer_factory.hpp:78] Creating layer conv1_2
I0706 10:18:43.649333 27256 net.cpp:69] Creating Layer conv1_2
I0706 10:18:43.649334 27256 net.cpp:396] conv1_2 <- conv1_1
I0706 10:18:43.649338 27256 net.cpp:358] conv1_2 -> conv1_2
I0706 10:18:43.649343 27256 net.cpp:98] Setting up conv1_2
I0706 10:18:43.649528 27256 net.cpp:105] Top shape: 256 64 32 32 (16777216)
I0706 10:18:43.649533 27256 layer_factory.hpp:78] Creating layer relu1_2
I0706 10:18:43.649536 27256 net.cpp:69] Creating Layer relu1_2
I0706 10:18:43.649538 27256 net.cpp:396] relu1_2 <- conv1_2
I0706 10:18:43.649543 27256 net.cpp:347] relu1_2 -> conv1_2 (in-place)
I0706 10:18:43.649545 27256 net.cpp:98] Setting up relu1_2
I0706 10:18:43.649549 27256 net.cpp:105] Top shape: 256 64 32 32 (16777216)
I0706 10:18:43.649551 27256 layer_factory.hpp:78] Creating layer pool1
I0706 10:18:43.649554 27256 net.cpp:69] Creating Layer pool1
I0706 10:18:43.649556 27256 net.cpp:396] pool1 <- conv1_2
I0706 10:18:43.649560 27256 net.cpp:358] pool1 -> pool1
I0706 10:18:43.649564 27256 net.cpp:358] pool1 -> pool1_mask
I0706 10:18:43.649569 27256 net.cpp:98] Setting up pool1
I0706 10:18:43.649574 27256 net.cpp:105] Top shape: 256 64 16 16 (4194304)
I0706 10:18:43.649575 27256 net.cpp:105] Top shape: 256 64 16 16 (4194304)
I0706 10:18:43.649577 27256 layer_factory.hpp:78] Creating layer conv2_1
I0706 10:18:43.649581 27256 net.cpp:69] Creating Layer conv2_1
I0706 10:18:43.649583 27256 net.cpp:396] conv2_1 <- pool1
I0706 10:18:43.649590 27256 net.cpp:358] conv2_1 -> conv2_1
I0706 10:18:43.649595 27256 net.cpp:98] Setting up conv2_1
I0706 10:18:43.649780 27256 net.cpp:105] Top shape: 256 64 16 16 (4194304)
I0706 10:18:43.649785 27256 layer_factory.hpp:78] Creating layer relu2_1
I0706 10:18:43.649790 27256 net.cpp:69] Creating Layer relu2_1
I0706 10:18:43.649792 27256 net.cpp:396] relu2_1 <- conv2_1
I0706 10:18:43.649796 27256 net.cpp:347] relu2_1 -> conv2_1 (in-place)
I0706 10:18:43.649798 27256 net.cpp:98] Setting up relu2_1
I0706 10:18:43.649801 27256 net.cpp:105] Top shape: 256 64 16 16 (4194304)
I0706 10:18:43.649803 27256 layer_factory.hpp:78] Creating layer conv2_2
I0706 10:18:43.649806 27256 net.cpp:69] Creating Layer conv2_2
I0706 10:18:43.649809 27256 net.cpp:396] conv2_2 <- conv2_1
I0706 10:18:43.649813 27256 net.cpp:358] conv2_2 -> conv2_2
I0706 10:18:43.649817 27256 net.cpp:98] Setting up conv2_2
I0706 10:18:43.650002 27256 net.cpp:105] Top shape: 256 64 16 16 (4194304)
I0706 10:18:43.650007 27256 layer_factory.hpp:78] Creating layer relu2_2
I0706 10:18:43.650012 27256 net.cpp:69] Creating Layer relu2_2
I0706 10:18:43.650013 27256 net.cpp:396] relu2_2 <- conv2_2
I0706 10:18:43.650018 27256 net.cpp:347] relu2_2 -> conv2_2 (in-place)
I0706 10:18:43.650022 27256 net.cpp:98] Setting up relu2_2
I0706 10:18:43.650028 27256 net.cpp:105] Top shape: 256 64 16 16 (4194304)
I0706 10:18:43.650030 27256 layer_factory.hpp:78] Creating layer pool2
I0706 10:18:43.650034 27256 net.cpp:69] Creating Layer pool2
I0706 10:18:43.650037 27256 net.cpp:396] pool2 <- conv2_2
I0706 10:18:43.650039 27256 net.cpp:358] pool2 -> pool2
I0706 10:18:43.650043 27256 net.cpp:358] pool2 -> pool2_mask
I0706 10:18:43.650048 27256 net.cpp:98] Setting up pool2
I0706 10:18:43.650050 27256 net.cpp:105] Top shape: 256 64 8 8 (1048576)
I0706 10:18:43.650053 27256 net.cpp:105] Top shape: 256 64 8 8 (1048576)
I0706 10:18:43.650054 27256 layer_factory.hpp:78] Creating layer conv3_1
I0706 10:18:43.650058 27256 net.cpp:69] Creating Layer conv3_1
I0706 10:18:43.650060 27256 net.cpp:396] conv3_1 <- pool2
I0706 10:18:43.650064 27256 net.cpp:358] conv3_1 -> conv3_1
I0706 10:18:43.650068 27256 net.cpp:98] Setting up conv3_1
I0706 10:18:43.650252 27256 net.cpp:105] Top shape: 256 64 8 8 (1048576)
I0706 10:18:43.650259 27256 layer_factory.hpp:78] Creating layer reul3_1
I0706 10:18:43.650261 27256 net.cpp:69] Creating Layer reul3_1
I0706 10:18:43.650264 27256 net.cpp:396] reul3_1 <- conv3_1
I0706 10:18:43.650269 27256 net.cpp:347] reul3_1 -> conv3_1 (in-place)
I0706 10:18:43.650272 27256 net.cpp:98] Setting up reul3_1
I0706 10:18:43.650274 27256 net.cpp:105] Top shape: 256 64 8 8 (1048576)
I0706 10:18:43.650276 27256 layer_factory.hpp:78] Creating layer conv3_2
I0706 10:18:43.650280 27256 net.cpp:69] Creating Layer conv3_2
I0706 10:18:43.650282 27256 net.cpp:396] conv3_2 <- conv3_1
I0706 10:18:43.650286 27256 net.cpp:358] conv3_2 -> conv3_2
I0706 10:18:43.650290 27256 net.cpp:98] Setting up conv3_2
I0706 10:18:43.650476 27256 net.cpp:105] Top shape: 256 64 8 8 (1048576)
I0706 10:18:43.650480 27256 layer_factory.hpp:78] Creating layer reul3_2
I0706 10:18:43.650483 27256 net.cpp:69] Creating Layer reul3_2
I0706 10:18:43.650486 27256 net.cpp:396] reul3_2 <- conv3_2
I0706 10:18:43.650490 27256 net.cpp:347] reul3_2 -> conv3_2 (in-place)
I0706 10:18:43.650493 27256 net.cpp:98] Setting up reul3_2
I0706 10:18:43.650496 27256 net.cpp:105] Top shape: 256 64 8 8 (1048576)
I0706 10:18:43.650497 27256 layer_factory.hpp:78] Creating layer pool3
I0706 10:18:43.650501 27256 net.cpp:69] Creating Layer pool3
I0706 10:18:43.650503 27256 net.cpp:396] pool3 <- conv3_2
I0706 10:18:43.650507 27256 net.cpp:358] pool3 -> pool3
I0706 10:18:43.650511 27256 net.cpp:358] pool3 -> pool3_mask
I0706 10:18:43.650516 27256 net.cpp:98] Setting up pool3
I0706 10:18:43.650518 27256 net.cpp:105] Top shape: 256 64 4 4 (262144)
I0706 10:18:43.650521 27256 net.cpp:105] Top shape: 256 64 4 4 (262144)
I0706 10:18:43.650522 27256 layer_factory.hpp:78] Creating layer middleConv0
I0706 10:18:43.650526 27256 net.cpp:69] Creating Layer middleConv0
I0706 10:18:43.650528 27256 net.cpp:396] middleConv0 <- pool3
I0706 10:18:43.650533 27256 net.cpp:358] middleConv0 -> middleConv0
I0706 10:18:43.650537 27256 net.cpp:98] Setting up middleConv0
I0706 10:18:43.650590 27256 net.cpp:105] Top shape: 256 50 1 1 (12800)
I0706 10:18:43.650595 27256 layer_factory.hpp:78] Creating layer deconv4_1
I0706 10:18:43.650602 27256 net.cpp:69] Creating Layer deconv4_1
I0706 10:18:43.650604 27256 net.cpp:396] deconv4_1 <- middleConv0
I0706 10:18:43.650609 27256 net.cpp:358] deconv4_1 -> deconv4_1
I0706 10:18:43.650614 27256 net.cpp:98] Setting up deconv4_1
I0706 10:18:43.650868 27256 net.cpp:105] Top shape: 256 64 4 4 (262144)
I0706 10:18:43.650873 27256 layer_factory.hpp:78] Creating layer unpool3
I0706 10:18:43.650877 27256 net.cpp:69] Creating Layer unpool3
I0706 10:18:43.650881 27256 net.cpp:396] unpool3 <- deconv4_1
I0706 10:18:43.650883 27256 net.cpp:396] unpool3 <- pool3_mask
I0706 10:18:43.650887 27256 net.cpp:358] unpool3 -> unpool3
I0706 10:18:43.650890 27256 net.cpp:98] Setting up unpool3
I0706 10:18:43.650895 27256 net.cpp:105] Top shape: 256 64 8 8 (1048576)
I0706 10:18:43.650898 27256 layer_factory.hpp:78] Creating layer deconv3_1
I0706 10:18:43.650903 27256 net.cpp:69] Creating Layer deconv3_1
I0706 10:18:43.650910 27256 net.cpp:396] deconv3_1 <- unpool3
I0706 10:18:43.650915 27256 net.cpp:358] deconv3_1 -> deconv3_1
I0706 10:18:43.650919 27256 net.cpp:98] Setting up deconv3_1
I0706 10:18:43.651106 27256 net.cpp:105] Top shape: 256 64 8 8 (1048576)
I0706 10:18:43.651113 27256 layer_factory.hpp:78] Creating layer deconv3_2
I0706 10:18:43.651118 27256 net.cpp:69] Creating Layer deconv3_2
I0706 10:18:43.651119 27256 net.cpp:396] deconv3_2 <- deconv3_1
I0706 10:18:43.651124 27256 net.cpp:358] deconv3_2 -> deconv3_2
I0706 10:18:43.651129 27256 net.cpp:98] Setting up deconv3_2
I0706 10:18:43.651314 27256 net.cpp:105] Top shape: 256 64 8 8 (1048576)
I0706 10:18:43.651319 27256 layer_factory.hpp:78] Creating layer dereul3_2
I0706 10:18:43.651322 27256 net.cpp:69] Creating Layer dereul3_2
I0706 10:18:43.651324 27256 net.cpp:396] dereul3_2 <- deconv3_2
I0706 10:18:43.651327 27256 net.cpp:347] dereul3_2 -> deconv3_2 (in-place)
I0706 10:18:43.651330 27256 net.cpp:98] Setting up dereul3_2
I0706 10:18:43.651334 27256 net.cpp:105] Top shape: 256 64 8 8 (1048576)
I0706 10:18:43.651335 27256 layer_factory.hpp:78] Creating layer unpool2
I0706 10:18:43.651338 27256 net.cpp:69] Creating Layer unpool2
I0706 10:18:43.651340 27256 net.cpp:396] unpool2 <- deconv3_2
I0706 10:18:43.651343 27256 net.cpp:396] unpool2 <- pool2_mask
I0706 10:18:43.651347 27256 net.cpp:358] unpool2 -> unpool2
I0706 10:18:43.651351 27256 net.cpp:98] Setting up unpool2
I0706 10:18:43.651355 27256 net.cpp:105] Top shape: 256 64 16 16 (4194304)
I0706 10:18:43.651356 27256 layer_factory.hpp:78] Creating layer deconv2_1
I0706 10:18:43.651360 27256 net.cpp:69] Creating Layer deconv2_1
I0706 10:18:43.651362 27256 net.cpp:396] deconv2_1 <- unpool2
I0706 10:18:43.651366 27256 net.cpp:358] deconv2_1 -> deconv2_1
I0706 10:18:43.651370 27256 net.cpp:98] Setting up deconv2_1
I0706 10:18:43.651553 27256 net.cpp:105] Top shape: 256 64 16 16 (4194304)
I0706 10:18:43.651558 27256 layer_factory.hpp:78] Creating layer deconv2_2
I0706 10:18:43.651562 27256 net.cpp:69] Creating Layer deconv2_2
I0706 10:18:43.651564 27256 net.cpp:396] deconv2_2 <- deconv2_1
I0706 10:18:43.651568 27256 net.cpp:358] deconv2_2 -> deconv2_2
I0706 10:18:43.651571 27256 net.cpp:98] Setting up deconv2_2
I0706 10:18:43.651757 27256 net.cpp:105] Top shape: 256 64 16 16 (4194304)
I0706 10:18:43.651762 27256 layer_factory.hpp:78] Creating layer derelu2_2
I0706 10:18:43.651764 27256 net.cpp:69] Creating Layer derelu2_2
I0706 10:18:43.651767 27256 net.cpp:396] derelu2_2 <- deconv2_2
I0706 10:18:43.651770 27256 net.cpp:347] derelu2_2 -> deconv2_2 (in-place)
I0706 10:18:43.651773 27256 net.cpp:98] Setting up derelu2_2
I0706 10:18:43.651775 27256 net.cpp:105] Top shape: 256 64 16 16 (4194304)
I0706 10:18:43.651778 27256 layer_factory.hpp:78] Creating layer unpool1
I0706 10:18:43.651782 27256 net.cpp:69] Creating Layer unpool1
I0706 10:18:43.651783 27256 net.cpp:396] unpool1 <- deconv2_2
I0706 10:18:43.651787 27256 net.cpp:396] unpool1 <- pool1_mask
I0706 10:18:43.651789 27256 net.cpp:358] unpool1 -> unpool1
I0706 10:18:43.651793 27256 net.cpp:98] Setting up unpool1
I0706 10:18:43.651795 27256 net.cpp:105] Top shape: 256 64 32 32 (16777216)
I0706 10:18:43.651798 27256 layer_factory.hpp:78] Creating layer deconv1_1
I0706 10:18:43.651803 27256 net.cpp:69] Creating Layer deconv1_1
I0706 10:18:43.651804 27256 net.cpp:396] deconv1_1 <- unpool1
I0706 10:18:43.651808 27256 net.cpp:358] deconv1_1 -> deconv1_1
I0706 10:18:43.651813 27256 net.cpp:98] Setting up deconv1_1
I0706 10:18:43.651998 27256 net.cpp:105] Top shape: 256 64 32 32 (16777216)
I0706 10:18:43.652004 27256 layer_factory.hpp:78] Creating layer data_reconstruction
I0706 10:18:43.652009 27256 net.cpp:69] Creating Layer data_reconstruction
I0706 10:18:43.652012 27256 net.cpp:396] data_reconstruction <- deconv1_1
I0706 10:18:43.652016 27256 net.cpp:358] data_reconstruction -> data_reconstruction
I0706 10:18:43.652020 27256 net.cpp:98] Setting up data_reconstruction
I0706 10:18:43.652994 27256 net.cpp:105] Top shape: 256 3 32 32 (786432)
I0706 10:18:43.653002 27256 layer_factory.hpp:78] Creating layer data_reconstruction2
I0706 10:18:43.653012 27256 net.cpp:69] Creating Layer data_reconstruction2
I0706 10:18:43.653015 27256 net.cpp:396] data_reconstruction2 <- data_reconstruction
I0706 10:18:43.653019 27256 net.cpp:358] data_reconstruction2 -> data_reconstruction2
I0706 10:18:43.653023 27256 net.cpp:98] Setting up data_reconstruction2
I0706 10:18:43.653079 27256 net.cpp:105] Top shape: 256 3 32 32 (786432)
I0706 10:18:43.653084 27256 layer_factory.hpp:78] Creating layer L2_loss
I0706 10:18:43.653087 27256 net.cpp:69] Creating Layer L2_loss
I0706 10:18:43.653090 27256 net.cpp:396] L2_loss <- data_reconstruction2
I0706 10:18:43.653092 27256 net.cpp:396] L2_loss <- data_data_0_split_1
I0706 10:18:43.653095 27256 net.cpp:358] L2_loss -> L2_loss
I0706 10:18:43.653100 27256 net.cpp:98] Setting up L2_loss
I0706 10:18:43.653105 27256 net.cpp:105] Top shape: 1 1 1 1 (1)
I0706 10:18:43.653107 27256 net.cpp:111]     with loss weight 1
I0706 10:18:43.653120 27256 net.cpp:172] L2_loss needs backward computation.
I0706 10:18:43.653123 27256 net.cpp:172] data_reconstruction2 needs backward computation.
I0706 10:18:43.653126 27256 net.cpp:172] data_reconstruction needs backward computation.
I0706 10:18:43.653128 27256 net.cpp:172] deconv1_1 needs backward computation.
…
