…
I0705 20:25:24.294962  9601 solver.cpp:70] Creating training net from net file: proto/reconstructIncremental1.prototxt
I0705 20:25:24.295408  9601 net.cpp:277] The NetState phase (0) differed from the phase (1) specified by a rule in layer data
I0705 20:25:24.295519  9601 net.cpp:39] Initializing net from parameters: 
name: "miniLCLreconstruction"
layers {
  top: "data"
  name: "data"
  type: DATA
  data_param {
    source: "/dataset/cifar100_lmdb_lab/cifar100_train_lmdb"
    batch_size: 512
    backend: LMDB
  }
  include {
    phase: TRAIN
  }
  transform_param {
    mean_file: "/dataset/cifar100_lmdb_lab/mean.binaryproto"
  }
}
layers {
  bottom: "data"
  top: "conv1_1"
  name: "conv1_1"
  type: CONVOLUTION
  blobs_lr: 0
  blobs_lr: 0
  weight_decay: 0
  weight_decay: 0
  convolution_param {
    num_output: 64
    pad: 1
    kernel_size: 3
    weight_filler {
      type: "xavier"
    }
    bias_filler {
      type: "constant"
      value: 0
    }
  }
}
layers {
  bottom: "conv1_1"
  top: "conv1_1"
  name: "relu1_1"
  type: RELU
}
layers {
  bottom: "conv1_1"
  top: "conv1_2"
  name: "conv1_2"
  type: CONVOLUTION
  blobs_lr: 0
  blobs_lr: 0
  weight_decay: 0
  weight_decay: 0
  convolution_param {
    num_output: 64
    pad: 1
    kernel_size: 3
    weight_filler {
      type: "xavier"
    }
    bias_filler {
      type: "constant"
      value: 0
    }
  }
}
layers {
  bottom: "conv1_2"
  top: "conv1_2"
  name: "relu1_2"
  type: RELU
}
layers {
  bottom: "conv1_2"
  top: "pool1"
  top: "pool1_mask"
  name: "pool1"
  type: POOLING
  pooling_param {
    pool: MAX
    kernel_size: 2
    stride: 2
  }
}
layers {
  bottom: "pool1"
  top: "conv2_1"
  name: "conv2_1"
  type: CONVOLUTION
  blobs_lr: 0
  blobs_lr: 0
  weight_decay: 0
  weight_decay: 0
  convolution_param {
    num_output: 64
    pad: 1
    kernel_size: 3
    weight_filler {
      type: "xavier"
    }
    bias_filler {
      type: "constant"
      value: 0
    }
  }
}
layers {
  bottom: "conv2_1"
  top: "conv2_1"
  name: "relu2_1"
  type: RELU
}
layers {
  bottom: "conv2_1"
  top: "conv2_2"
  name: "conv2_2"
  type: CONVOLUTION
  blobs_lr: 0
  blobs_lr: 0
  weight_decay: 0
  weight_decay: 0
  convolution_param {
    num_output: 64
    pad: 1
    kernel_size: 3
    weight_filler {
      type: "xavier"
    }
    bias_filler {
      type: "constant"
      value: 0
    }
  }
}
layers {
  bottom: "conv2_2"
  top: "conv2_2"
  name: "relu2_2"
  type: RELU
}
layers {
  bottom: "conv2_2"
  top: "pool2"
  top: "pool2_mask"
  name: "pool2"
  type: POOLING
  pooling_param {
    pool: MAX
    kernel_size: 2
    stride: 2
  }
}
layers {
  bottom: "pool2"
  top: "conv3_1"
  name: "conv3_1"
  type: CONVOLUTION
  blobs_lr: 0
  blobs_lr: 0
  weight_decay: 0
  weight_decay: 0
  convolution_param {
    num_output: 64
    pad: 1
    kernel_size: 3
    weight_filler {
      type: "xavier"
    }
    bias_filler {
      type: "constant"
      value: 0
    }
  }
}
layers {
  bottom: "conv3_1"
  top: "conv3_1"
  name: "reul3_1"
  type: RELU
}
layers {
  bottom: "conv3_1"
  top: "conv3_2"
  name: "conv3_2"
  type: CONVOLUTION
  blobs_lr: 0
  blobs_lr: 0
  weight_decay: 0
  weight_decay: 0
  convolution_param {
    num_output: 64
    pad: 1
    kernel_size: 3
    weight_filler {
      type: "xavier"
    }
    bias_filler {
      type: "constant"
      value: 0
    }
  }
}
layers {
  bottom: "conv3_2"
  top: "conv3_2"
  name: "reul3_2"
  type: RELU
}
layers {
  bottom: "conv3_2"
  top: "pool3"
  top: "pool3_mask"
  name: "pool3"
  type: POOLING
  pooling_param {
    pool: MAX
    kernel_size: 2
    stride: 2
  }
}
layers {
  bottom: "pool3"
  top: "middleConv50"
  name: "middleConv50"
  type: CONVOLUTION
  blobs_lr: 0
  blobs_lr: 0
  weight_decay: 0
  weight_decay: 0
  convolution_param {
    num_output: 50
    kernel_size: 4
    weight_filler {
      type: "xavier"
    }
    bias_filler {
      type: "constant"
      value: 0
    }
  }
}
layers {
  bottom: "middleConv50"
  top: "deconv4_1"
  name: "deconv4_1"
  type: DECONVOLUTION
  blobs_lr: 1
  blobs_lr: 2
  weight_decay: 0
  weight_decay: 0
  convolution_param {
    num_output: 64
    pad: 0
    kernel_size: 4
    weight_filler {
      type: "xavier"
    }
    bias_filler {
      type: "constant"
      value: 0
    }
  }
}
layers {
  bottom: "deconv4_1"
  top: "deconv4_1"
  name: "dereul4_1"
  type: RELU
}
layers {
  bottom: "deconv4_1"
  bottom: "pool3_mask"
  top: "unpool3"
  name: "unpool3"
  type: UNPOOLING
  unpooling_param {
    unpool: MAX
    kernel_size: 2
    stride: 2
    unpool_size: 8
  }
}
layers {
  bottom: "unpool3"
  top: "deconv3_1"
  name: "deconv3_1"
  type: DECONVOLUTION
  blobs_lr: 1
  blobs_lr: 2
  weight_decay: 0
  weight_decay: 0
  convolution_param {
    num_output: 64
    pad: 1
    kernel_size: 3
    weight_filler {
      type: "xavier"
    }
    bias_filler {
      type: "constant"
      value: 0
    }
  }
}
layers {
  bottom: "deconv3_1"
  top: "deconv3_2"
  name: "deconv3_2"
  type: DECONVOLUTION
  blobs_lr: 1
  blobs_lr: 2
  weight_decay: 0
  weight_decay: 0
  convolution_param {
    num_output: 64
    pad: 1
    kernel_size: 3
    weight_filler {
      type: "xavier"
    }
    bias_filler {
      type: "constant"
      value: 0
    }
  }
}
layers {
  bottom: "deconv3_2"
  top: "deconv3_2"
  name: "dereul3_2"
  type: RELU
}
layers {
  bottom: "deconv3_2"
  bottom: "pool2"
  top: "L2_loss"
  name: "L2_loss"
  type: EUCLIDEAN_LOSS
}
layers {
  bottom: "pool3_mask"
  name: "silence3"
  type: SILENCE
}
layers {
  bottom: "pool2_mask"
  name: "silence2"
  type: SILENCE
}
layers {
  bottom: "pool1_mask"
  name: "silence1"
  type: SILENCE
}
state {
  phase: TRAIN
}
I0705 20:25:24.295613  9601 layer_factory.hpp:78] Creating layer data
I0705 20:25:24.295626  9601 data_transformer.cpp:25] Loading mean file from/dataset/cifar100_lmdb_lab/mean.binaryproto
I0705 20:25:24.295672  9601 net.cpp:69] Creating Layer data
I0705 20:25:24.295677  9601 net.cpp:358] data -> data
I0705 20:25:24.295684  9601 net.cpp:98] Setting up data
I0705 20:25:24.295688  9601 data_layer.cpp:32] Opening dataset /dataset/cifar100_lmdb_lab/cifar100_train_lmdb
I0705 20:25:24.295759  9601 data_layer.cpp:71] output data size: 512,3,32,32
I0705 20:25:24.296525  9601 net.cpp:105] Top shape: 512 3 32 32 (1572864)
I0705 20:25:24.296535  9601 layer_factory.hpp:78] Creating layer conv1_1
I0705 20:25:24.296541  9601 net.cpp:69] Creating Layer conv1_1
I0705 20:25:24.296545  9601 net.cpp:396] conv1_1 <- data
I0705 20:25:24.296550  9601 net.cpp:358] conv1_1 -> conv1_1
I0705 20:25:24.296555  9601 net.cpp:98] Setting up conv1_1
I0705 20:25:24.296841  9601 net.cpp:105] Top shape: 512 64 32 32 (33554432)
I0705 20:25:24.296850  9601 layer_factory.hpp:78] Creating layer relu1_1
I0705 20:25:24.296855  9601 net.cpp:69] Creating Layer relu1_1
I0705 20:25:24.296857  9601 net.cpp:396] relu1_1 <- conv1_1
I0705 20:25:24.296860  9601 net.cpp:347] relu1_1 -> conv1_1 (in-place)
I0705 20:25:24.296864  9601 net.cpp:98] Setting up relu1_1
I0705 20:25:24.296867  9601 net.cpp:105] Top shape: 512 64 32 32 (33554432)
I0705 20:25:24.296869  9601 layer_factory.hpp:78] Creating layer conv1_2
I0705 20:25:24.296874  9601 net.cpp:69] Creating Layer conv1_2
I0705 20:25:24.296875  9601 net.cpp:396] conv1_2 <- conv1_1
I0705 20:25:24.296880  9601 net.cpp:358] conv1_2 -> conv1_2
I0705 20:25:24.296883  9601 net.cpp:98] Setting up conv1_2
I0705 20:25:24.297072  9601 net.cpp:105] Top shape: 512 64 32 32 (33554432)
I0705 20:25:24.297077  9601 layer_factory.hpp:78] Creating layer relu1_2
I0705 20:25:24.297081  9601 net.cpp:69] Creating Layer relu1_2
I0705 20:25:24.297085  9601 net.cpp:396] relu1_2 <- conv1_2
I0705 20:25:24.297092  9601 net.cpp:347] relu1_2 -> conv1_2 (in-place)
I0705 20:25:24.297096  9601 net.cpp:98] Setting up relu1_2
I0705 20:25:24.297107  9601 net.cpp:105] Top shape: 512 64 32 32 (33554432)
I0705 20:25:24.297111  9601 layer_factory.hpp:78] Creating layer pool1
I0705 20:25:24.297113  9601 net.cpp:69] Creating Layer pool1
I0705 20:25:24.297116  9601 net.cpp:396] pool1 <- conv1_2
I0705 20:25:24.297119  9601 net.cpp:358] pool1 -> pool1
I0705 20:25:24.297125  9601 net.cpp:358] pool1 -> pool1_mask
I0705 20:25:24.297129  9601 net.cpp:98] Setting up pool1
I0705 20:25:24.297135  9601 net.cpp:105] Top shape: 512 64 16 16 (8388608)
I0705 20:25:24.297138  9601 net.cpp:105] Top shape: 512 64 16 16 (8388608)
I0705 20:25:24.297140  9601 layer_factory.hpp:78] Creating layer conv2_1
I0705 20:25:24.297143  9601 net.cpp:69] Creating Layer conv2_1
I0705 20:25:24.297147  9601 net.cpp:396] conv2_1 <- pool1
I0705 20:25:24.297152  9601 net.cpp:358] conv2_1 -> conv2_1
I0705 20:25:24.297157  9601 net.cpp:98] Setting up conv2_1
I0705 20:25:24.297358  9601 net.cpp:105] Top shape: 512 64 16 16 (8388608)
I0705 20:25:24.297364  9601 layer_factory.hpp:78] Creating layer relu2_1
I0705 20:25:24.297368  9601 net.cpp:69] Creating Layer relu2_1
I0705 20:25:24.297369  9601 net.cpp:396] relu2_1 <- conv2_1
I0705 20:25:24.297374  9601 net.cpp:347] relu2_1 -> conv2_1 (in-place)
I0705 20:25:24.297377  9601 net.cpp:98] Setting up relu2_1
I0705 20:25:24.297380  9601 net.cpp:105] Top shape: 512 64 16 16 (8388608)
I0705 20:25:24.297382  9601 layer_factory.hpp:78] Creating layer conv2_2
I0705 20:25:24.297386  9601 net.cpp:69] Creating Layer conv2_2
I0705 20:25:24.297389  9601 net.cpp:396] conv2_2 <- conv2_1
I0705 20:25:24.297392  9601 net.cpp:358] conv2_2 -> conv2_2
I0705 20:25:24.297396  9601 net.cpp:98] Setting up conv2_2
I0705 20:25:24.297595  9601 net.cpp:105] Top shape: 512 64 16 16 (8388608)
I0705 20:25:24.297600  9601 layer_factory.hpp:78] Creating layer relu2_2
I0705 20:25:24.297603  9601 net.cpp:69] Creating Layer relu2_2
I0705 20:25:24.297605  9601 net.cpp:396] relu2_2 <- conv2_2
I0705 20:25:24.297608  9601 net.cpp:347] relu2_2 -> conv2_2 (in-place)
I0705 20:25:24.297612  9601 net.cpp:98] Setting up relu2_2
I0705 20:25:24.297615  9601 net.cpp:105] Top shape: 512 64 16 16 (8388608)
I0705 20:25:24.297616  9601 layer_factory.hpp:78] Creating layer pool2
I0705 20:25:24.297621  9601 net.cpp:69] Creating Layer pool2
I0705 20:25:24.297622  9601 net.cpp:396] pool2 <- conv2_2
I0705 20:25:24.297626  9601 net.cpp:358] pool2 -> pool2
I0705 20:25:24.297631  9601 net.cpp:358] pool2 -> pool2_mask
I0705 20:25:24.297636  9601 net.cpp:98] Setting up pool2
I0705 20:25:24.297638  9601 net.cpp:105] Top shape: 512 64 8 8 (2097152)
I0705 20:25:24.297641  9601 net.cpp:105] Top shape: 512 64 8 8 (2097152)
I0705 20:25:24.297643  9601 layer_factory.hpp:78] Creating layer pool2_pool2_0_split
I0705 20:25:24.297647  9601 net.cpp:69] Creating Layer pool2_pool2_0_split
I0705 20:25:24.297649  9601 net.cpp:396] pool2_pool2_0_split <- pool2
I0705 20:25:24.297653  9601 net.cpp:358] pool2_pool2_0_split -> pool2_pool2_0_split_0
I0705 20:25:24.297657  9601 net.cpp:358] pool2_pool2_0_split -> pool2_pool2_0_split_1
I0705 20:25:24.297660  9601 net.cpp:98] Setting up pool2_pool2_0_split
I0705 20:25:24.297663  9601 net.cpp:105] Top shape: 512 64 8 8 (2097152)
I0705 20:25:24.297665  9601 net.cpp:105] Top shape: 512 64 8 8 (2097152)
I0705 20:25:24.297667  9601 layer_factory.hpp:78] Creating layer conv3_1
I0705 20:25:24.297672  9601 net.cpp:69] Creating Layer conv3_1
I0705 20:25:24.297673  9601 net.cpp:396] conv3_1 <- pool2_pool2_0_split_0
I0705 20:25:24.297678  9601 net.cpp:358] conv3_1 -> conv3_1
I0705 20:25:24.297683  9601 net.cpp:98] Setting up conv3_1
I0705 20:25:24.297878  9601 net.cpp:105] Top shape: 512 64 8 8 (2097152)
I0705 20:25:24.297884  9601 layer_factory.hpp:78] Creating layer reul3_1
I0705 20:25:24.297888  9601 net.cpp:69] Creating Layer reul3_1
I0705 20:25:24.297890  9601 net.cpp:396] reul3_1 <- conv3_1
I0705 20:25:24.297894  9601 net.cpp:347] reul3_1 -> conv3_1 (in-place)
I0705 20:25:24.297899  9601 net.cpp:98] Setting up reul3_1
I0705 20:25:24.297902  9601 net.cpp:105] Top shape: 512 64 8 8 (2097152)
I0705 20:25:24.297909  9601 layer_factory.hpp:78] Creating layer conv3_2
I0705 20:25:24.297914  9601 net.cpp:69] Creating Layer conv3_2
I0705 20:25:24.297916  9601 net.cpp:396] conv3_2 <- conv3_1
I0705 20:25:24.297920  9601 net.cpp:358] conv3_2 -> conv3_2
I0705 20:25:24.297924  9601 net.cpp:98] Setting up conv3_2
I0705 20:25:24.298110  9601 net.cpp:105] Top shape: 512 64 8 8 (2097152)
I0705 20:25:24.298115  9601 layer_factory.hpp:78] Creating layer reul3_2
I0705 20:25:24.298117  9601 net.cpp:69] Creating Layer reul3_2
I0705 20:25:24.298120  9601 net.cpp:396] reul3_2 <- conv3_2
I0705 20:25:24.298125  9601 net.cpp:347] reul3_2 -> conv3_2 (in-place)
I0705 20:25:24.298127  9601 net.cpp:98] Setting up reul3_2
I0705 20:25:24.298130  9601 net.cpp:105] Top shape: 512 64 8 8 (2097152)
I0705 20:25:24.298132  9601 layer_factory.hpp:78] Creating layer pool3
I0705 20:25:24.298136  9601 net.cpp:69] Creating Layer pool3
I0705 20:25:24.298140  9601 net.cpp:396] pool3 <- conv3_2
I0705 20:25:24.298143  9601 net.cpp:358] pool3 -> pool3
I0705 20:25:24.298147  9601 net.cpp:358] pool3 -> pool3_mask
I0705 20:25:24.298151  9601 net.cpp:98] Setting up pool3
I0705 20:25:24.298154  9601 net.cpp:105] Top shape: 512 64 4 4 (524288)
I0705 20:25:24.298156  9601 net.cpp:105] Top shape: 512 64 4 4 (524288)
I0705 20:25:24.298159  9601 layer_factory.hpp:78] Creating layer pool3_mask_pool3_1_split
I0705 20:25:24.298162  9601 net.cpp:69] Creating Layer pool3_mask_pool3_1_split
I0705 20:25:24.298164  9601 net.cpp:396] pool3_mask_pool3_1_split <- pool3_mask
I0705 20:25:24.298168  9601 net.cpp:358] pool3_mask_pool3_1_split -> pool3_mask_pool3_1_split_0
I0705 20:25:24.298172  9601 net.cpp:358] pool3_mask_pool3_1_split -> pool3_mask_pool3_1_split_1
I0705 20:25:24.298177  9601 net.cpp:98] Setting up pool3_mask_pool3_1_split
I0705 20:25:24.298179  9601 net.cpp:105] Top shape: 512 64 4 4 (524288)
I0705 20:25:24.298182  9601 net.cpp:105] Top shape: 512 64 4 4 (524288)
I0705 20:25:24.298184  9601 layer_factory.hpp:78] Creating layer middleConv50
I0705 20:25:24.298188  9601 net.cpp:69] Creating Layer middleConv50
I0705 20:25:24.298190  9601 net.cpp:396] middleConv50 <- pool3
I0705 20:25:24.298195  9601 net.cpp:358] middleConv50 -> middleConv50
I0705 20:25:24.298199  9601 net.cpp:98] Setting up middleConv50
I0705 20:25:24.298475  9601 net.cpp:105] Top shape: 512 50 1 1 (25600)
I0705 20:25:24.298480  9601 layer_factory.hpp:78] Creating layer deconv4_1
I0705 20:25:24.298487  9601 net.cpp:69] Creating Layer deconv4_1
I0705 20:25:24.298490  9601 net.cpp:396] deconv4_1 <- middleConv50
I0705 20:25:24.298494  9601 net.cpp:358] deconv4_1 -> deconv4_1
I0705 20:25:24.298498  9601 net.cpp:98] Setting up deconv4_1
I0705 20:25:24.298753  9601 net.cpp:105] Top shape: 512 64 4 4 (524288)
I0705 20:25:24.298758  9601 layer_factory.hpp:78] Creating layer dereul4_1
I0705 20:25:24.298761  9601 net.cpp:69] Creating Layer dereul4_1
I0705 20:25:24.298764  9601 net.cpp:396] dereul4_1 <- deconv4_1
I0705 20:25:24.298768  9601 net.cpp:347] dereul4_1 -> deconv4_1 (in-place)
I0705 20:25:24.298771  9601 net.cpp:98] Setting up dereul4_1
I0705 20:25:24.298774  9601 net.cpp:105] Top shape: 512 64 4 4 (524288)
I0705 20:25:24.298776  9601 layer_factory.hpp:78] Creating layer unpool3
I0705 20:25:24.298780  9601 net.cpp:69] Creating Layer unpool3
I0705 20:25:24.298782  9601 net.cpp:396] unpool3 <- deconv4_1
I0705 20:25:24.298786  9601 net.cpp:396] unpool3 <- pool3_mask_pool3_1_split_0
I0705 20:25:24.298789  9601 net.cpp:358] unpool3 -> unpool3
I0705 20:25:24.298794  9601 net.cpp:98] Setting up unpool3
I0705 20:25:24.298799  9601 net.cpp:105] Top shape: 512 64 8 8 (2097152)
I0705 20:25:24.298801  9601 layer_factory.hpp:78] Creating layer deconv3_1
I0705 20:25:24.298806  9601 net.cpp:69] Creating Layer deconv3_1
I0705 20:25:24.298809  9601 net.cpp:396] deconv3_1 <- unpool3
I0705 20:25:24.298812  9601 net.cpp:358] deconv3_1 -> deconv3_1
I0705 20:25:24.298816  9601 net.cpp:98] Setting up deconv3_1
I0705 20:25:24.299012  9601 net.cpp:105] Top shape: 512 64 8 8 (2097152)
I0705 20:25:24.299021  9601 layer_factory.hpp:78] Creating layer deconv3_2
I0705 20:25:24.299029  9601 net.cpp:69] Creating Layer deconv3_2
I0705 20:25:24.299032  9601 net.cpp:396] deconv3_2 <- deconv3_1
I0705 20:25:24.299036  9601 net.cpp:358] deconv3_2 -> deconv3_2
I0705 20:25:24.299041  9601 net.cpp:98] Setting up deconv3_2
I0705 20:25:24.299247  9601 net.cpp:105] Top shape: 512 64 8 8 (2097152)
I0705 20:25:24.299252  9601 layer_factory.hpp:78] Creating layer dereul3_2
I0705 20:25:24.299255  9601 net.cpp:69] Creating Layer dereul3_2
I0705 20:25:24.299257  9601 net.cpp:396] dereul3_2 <- deconv3_2
I0705 20:25:24.299263  9601 net.cpp:347] dereul3_2 -> deconv3_2 (in-place)
I0705 20:25:24.299265  9601 net.cpp:98] Setting up dereul3_2
I0705 20:25:24.299268  9601 net.cpp:105] Top shape: 512 64 8 8 (2097152)
I0705 20:25:24.299270  9601 layer_factory.hpp:78] Creating layer L2_loss
I0705 20:25:24.299274  9601 net.cpp:69] Creating Layer L2_loss
I0705 20:25:24.299276  9601 net.cpp:396] L2_loss <- deconv3_2
I0705 20:25:24.299280  9601 net.cpp:396] L2_loss <- pool2_pool2_0_split_1
I0705 20:25:24.299283  9601 net.cpp:358] L2_loss -> L2_loss
I0705 20:25:24.299288  9601 net.cpp:98] Setting up L2_loss
I0705 20:25:24.299293  9601 net.cpp:105] Top shape: 1 1 1 1 (1)
I0705 20:25:24.299295  9601 net.cpp:111]     with loss weight 1
I0705 20:25:24.299309  9601 layer_factory.hpp:78] Creating layer silence3
I0705 20:25:24.299316  9601 net.cpp:69] Creating Layer silence3
I0705 20:25:24.299319  9601 net.cpp:396] silence3 <- pool3_mask_pool3_1_split_1
I0705 20:25:24.299321  9601 net.cpp:98] Setting up silence3
I0705 20:25:24.299324  9601 layer_factory.hpp:78] Creating layer silence2
…
