…
I0705 10:42:16.040838    13 net.cpp:277] The NetState phase (0) differed from the phase (1) specified by a rule in layer accurLayerWinnerTop1
I0705 10:42:16.040843    13 net.cpp:277] The NetState phase (0) differed from the phase (1) specified by a rule in layer accurLayerWinnerTop5
I0705 10:42:16.040935    13 net.cpp:39] Initializing net from parameters: 
name: "miniLCLreconstruction"
layers {
  top: "data"
  top: "label"
  name: "data"
  type: DATA
  data_param {
    source: "/dataset/cifar100_lmdb_lab/cifar100_train_lmdb"
    batch_size: 750
    backend: LMDB
  }
  include {
    phase: TRAIN
  }
  transform_param {
    mean_file: "/dataset/cifar100_lmdb_lab/mean.binaryproto"
  }
}
layers {
  bottom: "data"
  top: "conv1_1"
  name: "conv1_1"
  type: CONVOLUTION
  blobs_lr: 1
  blobs_lr: 2
  weight_decay: 0
  weight_decay: 0
  convolution_param {
    num_output: 64
    pad: 1
    kernel_size: 3
    weight_filler {
      type: "xavier"
    }
    bias_filler {
      type: "constant"
      value: 0
    }
  }
}
layers {
  bottom: "conv1_1"
  top: "conv1_1"
  name: "relu1_1"
  type: RELU
}
layers {
  bottom: "conv1_1"
  top: "conv1_2"
  name: "conv1_2"
  type: CONVOLUTION
  blobs_lr: 1
  blobs_lr: 2
  weight_decay: 0
  weight_decay: 0
  convolution_param {
    num_output: 64
    pad: 1
    kernel_size: 3
    weight_filler {
      type: "xavier"
    }
    bias_filler {
      type: "constant"
      value: 0
    }
  }
}
layers {
  bottom: "conv1_2"
  top: "conv1_2"
  name: "relu1_2"
  type: RELU
}
layers {
  bottom: "conv1_2"
  top: "pool1"
  top: "pool1_mask"
  name: "pool1"
  type: POOLING
  pooling_param {
    pool: MAX
    kernel_size: 2
    stride: 2
  }
}
layers {
  bottom: "pool1"
  top: "conv2_1"
  name: "conv2_1"
  type: CONVOLUTION
  blobs_lr: 1
  blobs_lr: 2
  weight_decay: 0
  weight_decay: 0
  convolution_param {
    num_output: 64
    pad: 1
    kernel_size: 3
    weight_filler {
      type: "xavier"
    }
    bias_filler {
      type: "constant"
      value: 0
    }
  }
}
layers {
  bottom: "conv2_1"
  top: "conv2_1"
  name: "relu2_1"
  type: RELU
}
layers {
  bottom: "conv2_1"
  top: "conv2_2"
  name: "conv2_2"
  type: CONVOLUTION
  blobs_lr: 1
  blobs_lr: 2
  weight_decay: 0
  weight_decay: 0
  convolution_param {
    num_output: 64
    pad: 1
    kernel_size: 3
    weight_filler {
      type: "xavier"
    }
    bias_filler {
      type: "constant"
      value: 0
    }
  }
}
layers {
  bottom: "conv2_2"
  top: "conv2_2"
  name: "relu2_2"
  type: RELU
}
layers {
  bottom: "conv2_2"
  top: "pool2"
  top: "pool2_mask"
  name: "pool2"
  type: POOLING
  pooling_param {
    pool: MAX
    kernel_size: 2
    stride: 2
  }
}
layers {
  bottom: "pool2"
  top: "conv3_1"
  name: "conv3_1"
  type: CONVOLUTION
  blobs_lr: 1
  blobs_lr: 2
  weight_decay: 0
  weight_decay: 0
  convolution_param {
    num_output: 64
    pad: 1
    kernel_size: 3
    weight_filler {
      type: "xavier"
    }
    bias_filler {
      type: "constant"
      value: 0
    }
  }
}
layers {
  bottom: "conv3_1"
  top: "conv3_1"
  name: "reul3_1"
  type: RELU
}
layers {
  bottom: "conv3_1"
  top: "conv3_2"
  name: "conv3_2"
  type: CONVOLUTION
  blobs_lr: 1
  blobs_lr: 2
  weight_decay: 0
  weight_decay: 0
  convolution_param {
    num_output: 64
    pad: 1
    kernel_size: 3
    weight_filler {
      type: "xavier"
    }
    bias_filler {
      type: "constant"
      value: 0
    }
  }
}
layers {
  bottom: "conv3_2"
  top: "conv3_2"
  name: "reul3_2"
  type: RELU
}
layers {
  bottom: "conv3_2"
  top: "pool3"
  top: "pool3_mask"
  name: "pool3"
  type: POOLING
  pooling_param {
    pool: MAX
    kernel_size: 2
    stride: 2
  }
}
layers {
  bottom: "pool3"
  top: "middleConv50"
  name: "middleConv50"
  type: CONVOLUTION
  blobs_lr: 1
  blobs_lr: 2
  weight_decay: 0
  weight_decay: 0
  convolution_param {
    num_output: 50
    kernel_size: 4
    weight_filler {
      type: "xavier"
    }
    bias_filler {
      type: "constant"
      value: 0
    }
  }
}
layers {
  bottom: "middleConv50"
  top: "middleConv50"
  name: "relu6"
  type: RELU
}
layers {
  bottom: "middleConv50"
  top: "fc7.50"
  name: "fc7.50"
  type: INNER_PRODUCT
  blobs_lr: 1
  blobs_lr: 2
  weight_decay: 0
  weight_decay: 0
  inner_product_param {
    num_output: 1024
    weight_filler {
      type: "xavier"
    }
    bias_filler {
      type: "constant"
    }
  }
}
layers {
  bottom: "fc7.50"
  top: "fc7.50"
  name: "drop7"
  type: DROPOUT
  dropout_param {
    dropout_ratio: 0.5
  }
  include {
    phase: TRAIN
  }
}
layers {
  bottom: "fc7.50"
  top: "fc7.50"
  name: "relu7"
  type: RELU
}
layers {
  bottom: "fc7.50"
  top: "fc8.2"
  name: "fc8.2"
  type: INNER_PRODUCT
  blobs_lr: 1
  blobs_lr: 2
  weight_decay: 0
  weight_decay: 0
  inner_product_param {
    num_output: 100
    weight_filler {
      type: "xavier"
    }
    bias_filler {
      type: "constant"
    }
  }
}
layers {
  bottom: "fc8.2"
  bottom: "label"
  top: "prob"
  name: "prob"
  type: SOFTMAX_LOSS
}
layers {
  bottom: "pool1_mask"
  name: "silence1"
  type: SILENCE
}
layers {
  bottom: "pool2_mask"
  name: "silence2"
  type: SILENCE
}
layers {
  bottom: "pool3_mask"
  name: "silence3"
  type: SILENCE
}
state {
  phase: TRAIN
}
I0705 10:42:16.041005    13 layer_factory.hpp:78] Creating layer data
I0705 10:42:16.041018    13 data_transformer.cpp:25] Loading mean file from/dataset/cifar100_lmdb_lab/mean.binaryproto
I0705 10:42:16.041064    13 net.cpp:69] Creating Layer data
I0705 10:42:16.041069    13 net.cpp:358] data -> data
I0705 10:42:16.041077    13 net.cpp:358] data -> label
I0705 10:42:16.041082    13 net.cpp:98] Setting up data
I0705 10:42:16.041085    13 data_layer.cpp:32] Opening dataset /dataset/cifar100_lmdb_lab/cifar100_train_lmdb
I0705 10:42:16.041159    13 data_layer.cpp:71] output data size: 750,3,32,32
I0705 10:42:16.042081    13 net.cpp:105] Top shape: 750 3 32 32 (2304000)
I0705 10:42:16.042098    13 net.cpp:105] Top shape: 750 1 1 1 (750)
I0705 10:42:16.042103    13 layer_factory.hpp:78] Creating layer conv1_1
I0705 10:42:16.042112    13 net.cpp:69] Creating Layer conv1_1
I0705 10:42:16.042115    13 net.cpp:396] conv1_1 <- data
I0705 10:42:16.042125    13 net.cpp:358] conv1_1 -> conv1_1
I0705 10:42:16.042134    13 net.cpp:98] Setting up conv1_1
I0705 10:42:16.042439    13 net.cpp:105] Top shape: 750 64 32 32 (49152000)
I0705 10:42:16.042456    13 layer_factory.hpp:78] Creating layer relu1_1
I0705 10:42:16.042460    13 net.cpp:69] Creating Layer relu1_1
I0705 10:42:16.042464    13 net.cpp:396] relu1_1 <- conv1_1
I0705 10:42:16.042467    13 net.cpp:347] relu1_1 -> conv1_1 (in-place)
I0705 10:42:16.042481    13 net.cpp:98] Setting up relu1_1
I0705 10:42:16.042484    13 net.cpp:105] Top shape: 750 64 32 32 (49152000)
I0705 10:42:16.042486    13 layer_factory.hpp:78] Creating layer conv1_2
I0705 10:42:16.042490    13 net.cpp:69] Creating Layer conv1_2
I0705 10:42:16.042493    13 net.cpp:396] conv1_2 <- conv1_1
I0705 10:42:16.042496    13 net.cpp:358] conv1_2 -> conv1_2
I0705 10:42:16.042501    13 net.cpp:98] Setting up conv1_2
I0705 10:42:16.042693    13 net.cpp:105] Top shape: 750 64 32 32 (49152000)
I0705 10:42:16.042700    13 layer_factory.hpp:78] Creating layer relu1_2
I0705 10:42:16.042704    13 net.cpp:69] Creating Layer relu1_2
I0705 10:42:16.042706    13 net.cpp:396] relu1_2 <- conv1_2
I0705 10:42:16.042711    13 net.cpp:347] relu1_2 -> conv1_2 (in-place)
I0705 10:42:16.042713    13 net.cpp:98] Setting up relu1_2
I0705 10:42:16.042721    13 net.cpp:105] Top shape: 750 64 32 32 (49152000)
I0705 10:42:16.042724    13 layer_factory.hpp:78] Creating layer pool1
I0705 10:42:16.042737    13 net.cpp:69] Creating Layer pool1
I0705 10:42:16.042740    13 net.cpp:396] pool1 <- conv1_2
I0705 10:42:16.042743    13 net.cpp:358] pool1 -> pool1
I0705 10:42:16.042748    13 net.cpp:358] pool1 -> pool1_mask
I0705 10:42:16.042752    13 net.cpp:98] Setting up pool1
I0705 10:42:16.042758    13 net.cpp:105] Top shape: 750 64 16 16 (12288000)
I0705 10:42:16.042760    13 net.cpp:105] Top shape: 750 64 16 16 (12288000)
I0705 10:42:16.042762    13 layer_factory.hpp:78] Creating layer conv2_1
I0705 10:42:16.042767    13 net.cpp:69] Creating Layer conv2_1
I0705 10:42:16.042769    13 net.cpp:396] conv2_1 <- pool1
I0705 10:42:16.042773    13 net.cpp:358] conv2_1 -> conv2_1
I0705 10:42:16.042778    13 net.cpp:98] Setting up conv2_1
I0705 10:42:16.042964    13 net.cpp:105] Top shape: 750 64 16 16 (12288000)
I0705 10:42:16.042969    13 layer_factory.hpp:78] Creating layer relu2_1
I0705 10:42:16.042973    13 net.cpp:69] Creating Layer relu2_1
I0705 10:42:16.042975    13 net.cpp:396] relu2_1 <- conv2_1
I0705 10:42:16.042979    13 net.cpp:347] relu2_1 -> conv2_1 (in-place)
I0705 10:42:16.042982    13 net.cpp:98] Setting up relu2_1
I0705 10:42:16.042985    13 net.cpp:105] Top shape: 750 64 16 16 (12288000)
I0705 10:42:16.042987    13 layer_factory.hpp:78] Creating layer conv2_2
I0705 10:42:16.042991    13 net.cpp:69] Creating Layer conv2_2
I0705 10:42:16.042994    13 net.cpp:396] conv2_2 <- conv2_1
I0705 10:42:16.042999    13 net.cpp:358] conv2_2 -> conv2_2
I0705 10:42:16.043002    13 net.cpp:98] Setting up conv2_2
I0705 10:42:16.043202    13 net.cpp:105] Top shape: 750 64 16 16 (12288000)
I0705 10:42:16.043208    13 layer_factory.hpp:78] Creating layer relu2_2
I0705 10:42:16.043211    13 net.cpp:69] Creating Layer relu2_2
I0705 10:42:16.043213    13 net.cpp:396] relu2_2 <- conv2_2
I0705 10:42:16.043217    13 net.cpp:347] relu2_2 -> conv2_2 (in-place)
I0705 10:42:16.043221    13 net.cpp:98] Setting up relu2_2
I0705 10:42:16.043223    13 net.cpp:105] Top shape: 750 64 16 16 (12288000)
I0705 10:42:16.043226    13 layer_factory.hpp:78] Creating layer pool2
I0705 10:42:16.043229    13 net.cpp:69] Creating Layer pool2
I0705 10:42:16.043231    13 net.cpp:396] pool2 <- conv2_2
I0705 10:42:16.043234    13 net.cpp:358] pool2 -> pool2
I0705 10:42:16.043239    13 net.cpp:358] pool2 -> pool2_mask
I0705 10:42:16.043243    13 net.cpp:98] Setting up pool2
I0705 10:42:16.043246    13 net.cpp:105] Top shape: 750 64 8 8 (3072000)
I0705 10:42:16.043248    13 net.cpp:105] Top shape: 750 64 8 8 (3072000)
I0705 10:42:16.043251    13 layer_factory.hpp:78] Creating layer conv3_1
I0705 10:42:16.043256    13 net.cpp:69] Creating Layer conv3_1
I0705 10:42:16.043259    13 net.cpp:396] conv3_1 <- pool2
I0705 10:42:16.043263    13 net.cpp:358] conv3_1 -> conv3_1
I0705 10:42:16.043267    13 net.cpp:98] Setting up conv3_1
I0705 10:42:16.043468    13 net.cpp:105] Top shape: 750 64 8 8 (3072000)
I0705 10:42:16.043474    13 layer_factory.hpp:78] Creating layer reul3_1
I0705 10:42:16.043478    13 net.cpp:69] Creating Layer reul3_1
I0705 10:42:16.043481    13 net.cpp:396] reul3_1 <- conv3_1
I0705 10:42:16.043484    13 net.cpp:347] reul3_1 -> conv3_1 (in-place)
I0705 10:42:16.043488    13 net.cpp:98] Setting up reul3_1
I0705 10:42:16.043490    13 net.cpp:105] Top shape: 750 64 8 8 (3072000)
I0705 10:42:16.043493    13 layer_factory.hpp:78] Creating layer conv3_2
I0705 10:42:16.043498    13 net.cpp:69] Creating Layer conv3_2
I0705 10:42:16.043499    13 net.cpp:396] conv3_2 <- conv3_1
I0705 10:42:16.043503    13 net.cpp:358] conv3_2 -> conv3_2
I0705 10:42:16.043507    13 net.cpp:98] Setting up conv3_2
I0705 10:42:16.043709    13 net.cpp:105] Top shape: 750 64 8 8 (3072000)
I0705 10:42:16.043715    13 layer_factory.hpp:78] Creating layer reul3_2
I0705 10:42:16.043718    13 net.cpp:69] Creating Layer reul3_2
I0705 10:42:16.043721    13 net.cpp:396] reul3_2 <- conv3_2
I0705 10:42:16.043725    13 net.cpp:347] reul3_2 -> conv3_2 (in-place)
I0705 10:42:16.043730    13 net.cpp:98] Setting up reul3_2
I0705 10:42:16.043735    13 net.cpp:105] Top shape: 750 64 8 8 (3072000)
I0705 10:42:16.043738    13 layer_factory.hpp:78] Creating layer pool3
I0705 10:42:16.043742    13 net.cpp:69] Creating Layer pool3
I0705 10:42:16.043745    13 net.cpp:396] pool3 <- conv3_2
I0705 10:42:16.043748    13 net.cpp:358] pool3 -> pool3
I0705 10:42:16.043752    13 net.cpp:358] pool3 -> pool3_mask
I0705 10:42:16.043756    13 net.cpp:98] Setting up pool3
I0705 10:42:16.043758    13 net.cpp:105] Top shape: 750 64 4 4 (768000)
I0705 10:42:16.043761    13 net.cpp:105] Top shape: 750 64 4 4 (768000)
I0705 10:42:16.043763    13 layer_factory.hpp:78] Creating layer middleConv50
I0705 10:42:16.043768    13 net.cpp:69] Creating Layer middleConv50
I0705 10:42:16.043771    13 net.cpp:396] middleConv50 <- pool3
I0705 10:42:16.043776    13 net.cpp:358] middleConv50 -> middleConv50
I0705 10:42:16.043779    13 net.cpp:98] Setting up middleConv50
I0705 10:42:16.044055    13 net.cpp:105] Top shape: 750 50 1 1 (37500)
I0705 10:42:16.044061    13 layer_factory.hpp:78] Creating layer relu6
I0705 10:42:16.044064    13 net.cpp:69] Creating Layer relu6
I0705 10:42:16.044066    13 net.cpp:396] relu6 <- middleConv50
I0705 10:42:16.044070    13 net.cpp:347] relu6 -> middleConv50 (in-place)
I0705 10:42:16.044073    13 net.cpp:98] Setting up relu6
I0705 10:42:16.044075    13 net.cpp:105] Top shape: 750 50 1 1 (37500)
I0705 10:42:16.044078    13 layer_factory.hpp:78] Creating layer fc7.50
I0705 10:42:16.044083    13 net.cpp:69] Creating Layer fc7.50
I0705 10:42:16.044085    13 net.cpp:396] fc7.50 <- middleConv50
I0705 10:42:16.044090    13 net.cpp:358] fc7.50 -> fc7.50
I0705 10:42:16.044093    13 net.cpp:98] Setting up fc7.50
I0705 10:42:16.044384    13 net.cpp:105] Top shape: 750 1024 1 1 (768000)
I0705 10:42:16.044390    13 layer_factory.hpp:78] Creating layer drop7
I0705 10:42:16.044394    13 net.cpp:69] Creating Layer drop7
I0705 10:42:16.044399    13 net.cpp:396] drop7 <- fc7.50
I0705 10:42:16.044401    13 net.cpp:347] drop7 -> fc7.50 (in-place)
I0705 10:42:16.044405    13 net.cpp:98] Setting up drop7
I0705 10:42:16.044409    13 net.cpp:105] Top shape: 750 1024 1 1 (768000)
I0705 10:42:16.044411    13 layer_factory.hpp:78] Creating layer relu7
I0705 10:42:16.044414    13 net.cpp:69] Creating Layer relu7
I0705 10:42:16.044416    13 net.cpp:396] relu7 <- fc7.50
I0705 10:42:16.044420    13 net.cpp:347] relu7 -> fc7.50 (in-place)
I0705 10:42:16.044422    13 net.cpp:98] Setting up relu7
I0705 10:42:16.044425    13 net.cpp:105] Top shape: 750 1024 1 1 (768000)
I0705 10:42:16.044427    13 layer_factory.hpp:78] Creating layer fc8.2
I0705 10:42:16.044432    13 net.cpp:69] Creating Layer fc8.2
I0705 10:42:16.044435    13 net.cpp:396] fc8.2 <- fc7.50
I0705 10:42:16.044438    13 net.cpp:358] fc8.2 -> fc8.2
I0705 10:42:16.044443    13 net.cpp:98] Setting up fc8.2
I0705 10:42:16.044976    13 net.cpp:105] Top shape: 750 100 1 1 (75000)
I0705 10:42:16.044984    13 layer_factory.hpp:78] Creating layer prob
I0705 10:42:16.044992    13 net.cpp:69] Creating Layer prob
I0705 10:42:16.044996    13 net.cpp:396] prob <- fc8.2
I0705 10:42:16.044999    13 net.cpp:396] prob <- label
I0705 10:42:16.045002    13 net.cpp:358] prob -> prob
I0705 10:42:16.045006    13 net.cpp:98] Setting up prob
I0705 10:42:16.045016    13 net.cpp:105] Top shape: 1 1 1 1 (1)
I0705 10:42:16.045018    13 net.cpp:111]     with loss weight 1
I0705 10:42:16.045032    13 layer_factory.hpp:78] Creating layer silence1
I0705 10:42:16.045042    13 net.cpp:69] Creating Layer silence1
I0705 10:42:16.045044    13 net.cpp:396] silence1 <- pool1_mask
I0705 10:42:16.045047    13 net.cpp:98] Setting up silence1
I0705 10:42:16.045050    13 layer_factory.hpp:78] Creating layer silence2
…
I0705 10:42:16.045645    13 net.cpp:277] The NetState phase (1) differed from the phase (0) specified by a rule in layer data
I0705 10:42:16.045655    13 net.cpp:277] The NetState phase (1) differed from the phase (0) specified by a rule in layer drop7
I0705 10:42:16.045753    13 net.cpp:39] Initializing net from parameters: 
name: "miniLCLreconstruction"
layers {
  top: "data"
  top: "label"
  name: "data"
  type: DATA
  data_param {
    source: "/dataset/cifar100_lmdb_lab/cifar100_test_lmdb"
    batch_size: 750
    backend: LMDB
  }
  include {
    phase: TEST
  }
  transform_param {
    mean_file: "/dataset/cifar100_lmdb_lab/mean.binaryproto"
  }
}
layers {
  bottom: "data"
  top: "conv1_1"
  name: "conv1_1"
  type: CONVOLUTION
  blobs_lr: 1
  blobs_lr: 2
  weight_decay: 0
  weight_decay: 0
  convolution_param {
    num_output: 64
    pad: 1
    kernel_size: 3
    weight_filler {
      type: "xavier"
    }
    bias_filler {
      type: "constant"
      value: 0
    }
  }
}
layers {
  bottom: "conv1_1"
  top: "conv1_1"
  name: "relu1_1"
  type: RELU
}
layers {
  bottom: "conv1_1"
  top: "conv1_2"
  name: "conv1_2"
  type: CONVOLUTION
  blobs_lr: 1
  blobs_lr: 2
  weight_decay: 0
  weight_decay: 0
  convolution_param {
    num_output: 64
    pad: 1
    kernel_size: 3
    weight_filler {
      type: "xavier"
    }
    bias_filler {
      type: "constant"
      value: 0
    }
  }
}
layers {
  bottom: "conv1_2"
  top: "conv1_2"
  name: "relu1_2"
  type: RELU
}
layers {
  bottom: "conv1_2"
  top: "pool1"
  top: "pool1_mask"
  name: "pool1"
  type: POOLING
  pooling_param {
    pool: MAX
    kernel_size: 2
    stride: 2
  }
}
layers {
  bottom: "pool1"
  top: "conv2_1"
  name: "conv2_1"
  type: CONVOLUTION
  blobs_lr: 1
  blobs_lr: 2
  weight_decay: 0
  weight_decay: 0
  convolution_param {
    num_output: 64
    pad: 1
    kernel_size: 3
    weight_filler {
      type: "xavier"
    }
    bias_filler {
      type: "constant"
      value: 0
    }
  }
}
layers {
  bottom: "conv2_1"
  top: "conv2_1"
  name: "relu2_1"
  type: RELU
}
layers {
  bottom: "conv2_1"
  top: "conv2_2"
  name: "conv2_2"
  type: CONVOLUTION
  blobs_lr: 1
  blobs_lr: 2
  weight_decay: 0
  weight_decay: 0
  convolution_param {
    num_output: 64
    pad: 1
    kernel_size: 3
    weight_filler {
      type: "xavier"
    }
    bias_filler {
      type: "constant"
      value: 0
    }
  }
}
layers {
  bottom: "conv2_2"
  top: "conv2_2"
  name: "relu2_2"
  type: RELU
}
layers {
  bottom: "conv2_2"
  top: "pool2"
  top: "pool2_mask"
  name: "pool2"
  type: POOLING
  pooling_param {
    pool: MAX
    kernel_size: 2
    stride: 2
  }
}
layers {
  bottom: "pool2"
  top: "conv3_1"
  name: "conv3_1"
  type: CONVOLUTION
  blobs_lr: 1
  blobs_lr: 2
  weight_decay: 0
  weight_decay: 0
  convolution_param {
    num_output: 64
    pad: 1
    kernel_size: 3
    weight_filler {
      type: "xavier"
    }
    bias_filler {
      type: "constant"
      value: 0
    }
  }
}
layers {
  bottom: "conv3_1"
  top: "conv3_1"
  name: "reul3_1"
  type: RELU
}
layers {
  bottom: "conv3_1"
  top: "conv3_2"
  name: "conv3_2"
  type: CONVOLUTION
  blobs_lr: 1
  blobs_lr: 2
  weight_decay: 0
  weight_decay: 0
  convolution_param {
    num_output: 64
    pad: 1
    kernel_size: 3
    weight_filler {
      type: "xavier"
    }
    bias_filler {
      type: "constant"
      value: 0
    }
  }
}
layers {
  bottom: "conv3_2"
  top: "conv3_2"
  name: "reul3_2"
  type: RELU
}
layers {
  bottom: "conv3_2"
  top: "pool3"
  top: "pool3_mask"
  name: "pool3"
  type: POOLING
  pooling_param {
    pool: MAX
    kernel_size: 2
    stride: 2
  }
}
layers {
  bottom: "pool3"
  top: "middleConv50"
  name: "middleConv50"
  type: CONVOLUTION
  blobs_lr: 1
  blobs_lr: 2
  weight_decay: 0
  weight_decay: 0
  convolution_param {
    num_output: 50
    kernel_size: 4
    weight_filler {
      type: "xavier"
    }
    bias_filler {
      type: "constant"
      value: 0
    }
  }
}
layers {
  bottom: "middleConv50"
  top: "middleConv50"
  name: "relu6"
  type: RELU
}
layers {
  bottom: "middleConv50"
  top: "fc7.50"
  name: "fc7.50"
  type: INNER_PRODUCT
  blobs_lr: 1
  blobs_lr: 2
  weight_decay: 0
  weight_decay: 0
  inner_product_param {
    num_output: 1024
    weight_filler {
      type: "xavier"
    }
    bias_filler {
      type: "constant"
    }
  }
}
layers {
  bottom: "fc7.50"
  top: "fc7.50"
  name: "relu7"
  type: RELU
}
layers {
  bottom: "fc7.50"
  top: "fc8.2"
  name: "fc8.2"
  type: INNER_PRODUCT
  blobs_lr: 1
  blobs_lr: 2
  weight_decay: 0
  weight_decay: 0
  inner_product_param {
    num_output: 100
    weight_filler {
      type: "xavier"
    }
    bias_filler {
      type: "constant"
    }
  }
}
layers {
  bottom: "fc8.2"
  bottom: "label"
  top: "prob"
  name: "prob"
  type: SOFTMAX_LOSS
}
layers {
  bottom: "fc8.2"
  bottom: "label"
  top: "accurLayerWinnerTop1"
  name: "accurLayerWinnerTop1"
  type: ACCURACY
  accuracy_param {
    top_k: 1
  }
  include {
    phase: TEST
  }
}
layers {
  bottom: "fc8.2"
  bottom: "label"
  top: "accurLayerWinnerTop5"
  name: "accurLayerWinnerTop5"
  type: ACCURACY
  accuracy_param {
    top_k: 5
  }
  include {
    phase: TEST
  }
}
layers {
  bottom: "pool1_mask"
  name: "silence1"
  type: SILENCE
}
layers {
  bottom: "pool2_mask"
  name: "silence2"
  type: SILENCE
}
layers {
  bottom: "pool3_mask"
  name: "silence3"
  type: SILENCE
}
state {
  phase: TEST
}
I0705 10:42:16.045836    13 layer_factory.hpp:78] Creating layer data
I0705 10:42:16.045842    13 data_transformer.cpp:25] Loading mean file from/dataset/cifar100_lmdb_lab/mean.binaryproto
I0705 10:42:16.045879    13 net.cpp:69] Creating Layer data
I0705 10:42:16.045887    13 net.cpp:358] data -> data
I0705 10:42:16.045893    13 net.cpp:358] data -> label
I0705 10:42:16.045897    13 net.cpp:98] Setting up data
I0705 10:42:16.045900    13 data_layer.cpp:32] Opening dataset /dataset/cifar100_lmdb_lab/cifar100_test_lmdb
I0705 10:42:16.045943    13 data_layer.cpp:71] output data size: 750,3,32,32
I0705 10:42:16.047088    13 net.cpp:105] Top shape: 750 3 32 32 (2304000)
I0705 10:42:16.047106    13 net.cpp:105] Top shape: 750 1 1 1 (750)
I0705 10:42:16.047111    13 layer_factory.hpp:78] Creating layer label_data_1_split
I0705 10:42:16.047118    13 net.cpp:69] Creating Layer label_data_1_split
I0705 10:42:16.047122    13 net.cpp:396] label_data_1_split <- label
I0705 10:42:16.047127    13 net.cpp:358] label_data_1_split -> label_data_1_split_0
I0705 10:42:16.047134    13 net.cpp:358] label_data_1_split -> label_data_1_split_1
I0705 10:42:16.047139    13 net.cpp:358] label_data_1_split -> label_data_1_split_2
I0705 10:42:16.047143    13 net.cpp:98] Setting up label_data_1_split
I0705 10:42:16.047147    13 net.cpp:105] Top shape: 750 1 1 1 (750)
I0705 10:42:16.047149    13 net.cpp:105] Top shape: 750 1 1 1 (750)
I0705 10:42:16.047152    13 net.cpp:105] Top shape: 750 1 1 1 (750)
I0705 10:42:16.047155    13 layer_factory.hpp:78] Creating layer conv1_1
I0705 10:42:16.047163    13 net.cpp:69] Creating Layer conv1_1
I0705 10:42:16.047165    13 net.cpp:396] conv1_1 <- data
I0705 10:42:16.047169    13 net.cpp:358] conv1_1 -> conv1_1
I0705 10:42:16.047174    13 net.cpp:98] Setting up conv1_1
I0705 10:42:16.047195    13 net.cpp:105] Top shape: 750 64 32 32 (49152000)
I0705 10:42:16.047202    13 layer_factory.hpp:78] Creating layer relu1_1
I0705 10:42:16.047206    13 net.cpp:69] Creating Layer relu1_1
I0705 10:42:16.047209    13 net.cpp:396] relu1_1 <- conv1_1
I0705 10:42:16.047214    13 net.cpp:347] relu1_1 -> conv1_1 (in-place)
I0705 10:42:16.047216    13 net.cpp:98] Setting up relu1_1
I0705 10:42:16.047219    13 net.cpp:105] Top shape: 750 64 32 32 (49152000)
I0705 10:42:16.047222    13 layer_factory.hpp:78] Creating layer conv1_2
I0705 10:42:16.047226    13 net.cpp:69] Creating Layer conv1_2
I0705 10:42:16.047230    13 net.cpp:396] conv1_2 <- conv1_1
I0705 10:42:16.047233    13 net.cpp:358] conv1_2 -> conv1_2
I0705 10:42:16.047237    13 net.cpp:98] Setting up conv1_2
I0705 10:42:16.047428    13 net.cpp:105] Top shape: 750 64 32 32 (49152000)
I0705 10:42:16.047433    13 layer_factory.hpp:78] Creating layer relu1_2
I0705 10:42:16.047438    13 net.cpp:69] Creating Layer relu1_2
I0705 10:42:16.047441    13 net.cpp:396] relu1_2 <- conv1_2
I0705 10:42:16.047444    13 net.cpp:347] relu1_2 -> conv1_2 (in-place)
I0705 10:42:16.047447    13 net.cpp:98] Setting up relu1_2
I0705 10:42:16.047449    13 net.cpp:105] Top shape: 750 64 32 32 (49152000)
I0705 10:42:16.047452    13 layer_factory.hpp:78] Creating layer pool1
I0705 10:42:16.047457    13 net.cpp:69] Creating Layer pool1
I0705 10:42:16.047459    13 net.cpp:396] pool1 <- conv1_2
I0705 10:42:16.047463    13 net.cpp:358] pool1 -> pool1
I0705 10:42:16.047468    13 net.cpp:358] pool1 -> pool1_mask
I0705 10:42:16.047472    13 net.cpp:98] Setting up pool1
I0705 10:42:16.047477    13 net.cpp:105] Top shape: 750 64 16 16 (12288000)
I0705 10:42:16.047479    13 net.cpp:105] Top shape: 750 64 16 16 (12288000)
I0705 10:42:16.047482    13 layer_factory.hpp:78] Creating layer conv2_1
I0705 10:42:16.047487    13 net.cpp:69] Creating Layer conv2_1
I0705 10:42:16.047489    13 net.cpp:396] conv2_1 <- pool1
I0705 10:42:16.047493    13 net.cpp:358] conv2_1 -> conv2_1
I0705 10:42:16.047497    13 net.cpp:98] Setting up conv2_1
I0705 10:42:16.047700    13 net.cpp:105] Top shape: 750 64 16 16 (12288000)
I0705 10:42:16.047708    13 layer_factory.hpp:78] Creating layer relu2_1
I0705 10:42:16.047713    13 net.cpp:69] Creating Layer relu2_1
I0705 10:42:16.047714    13 net.cpp:396] relu2_1 <- conv2_1
I0705 10:42:16.047719    13 net.cpp:347] relu2_1 -> conv2_1 (in-place)
I0705 10:42:16.047727    13 net.cpp:98] Setting up relu2_1
I0705 10:42:16.047740    13 net.cpp:105] Top shape: 750 64 16 16 (12288000)
I0705 10:42:16.047744    13 layer_factory.hpp:78] Creating layer conv2_2
I0705 10:42:16.047747    13 net.cpp:69] Creating Layer conv2_2
I0705 10:42:16.047750    13 net.cpp:396] conv2_2 <- conv2_1
I0705 10:42:16.047755    13 net.cpp:358] conv2_2 -> conv2_2
I0705 10:42:16.047758    13 net.cpp:98] Setting up conv2_2
I0705 10:42:16.047948    13 net.cpp:105] Top shape: 750 64 16 16 (12288000)
I0705 10:42:16.047953    13 layer_factory.hpp:78] Creating layer relu2_2
I0705 10:42:16.047957    13 net.cpp:69] Creating Layer relu2_2
I0705 10:42:16.047960    13 net.cpp:396] relu2_2 <- conv2_2
I0705 10:42:16.047962    13 net.cpp:347] relu2_2 -> conv2_2 (in-place)
I0705 10:42:16.047966    13 net.cpp:98] Setting up relu2_2
I0705 10:42:16.047968    13 net.cpp:105] Top shape: 750 64 16 16 (12288000)
I0705 10:42:16.047971    13 layer_factory.hpp:78] Creating layer pool2
I0705 10:42:16.047976    13 net.cpp:69] Creating Layer pool2
I0705 10:42:16.047977    13 net.cpp:396] pool2 <- conv2_2
I0705 10:42:16.047981    13 net.cpp:358] pool2 -> pool2
I0705 10:42:16.047986    13 net.cpp:358] pool2 -> pool2_mask
I0705 10:42:16.047988    13 net.cpp:98] Setting up pool2
I0705 10:42:16.047991    13 net.cpp:105] Top shape: 750 64 8 8 (3072000)
I0705 10:42:16.047994    13 net.cpp:105] Top shape: 750 64 8 8 (3072000)
I0705 10:42:16.047996    13 layer_factory.hpp:78] Creating layer conv3_1
I0705 10:42:16.048002    13 net.cpp:69] Creating Layer conv3_1
I0705 10:42:16.048004    13 net.cpp:396] conv3_1 <- pool2
I0705 10:42:16.048007    13 net.cpp:358] conv3_1 -> conv3_1
I0705 10:42:16.048012    13 net.cpp:98] Setting up conv3_1
I0705 10:42:16.048228    13 net.cpp:105] Top shape: 750 64 8 8 (3072000)
I0705 10:42:16.048236    13 layer_factory.hpp:78] Creating layer reul3_1
I0705 10:42:16.048240    13 net.cpp:69] Creating Layer reul3_1
I0705 10:42:16.048243    13 net.cpp:396] reul3_1 <- conv3_1
I0705 10:42:16.048246    13 net.cpp:347] reul3_1 -> conv3_1 (in-place)
I0705 10:42:16.048250    13 net.cpp:98] Setting up reul3_1
I0705 10:42:16.048252    13 net.cpp:105] Top shape: 750 64 8 8 (3072000)
I0705 10:42:16.048255    13 layer_factory.hpp:78] Creating layer conv3_2
I0705 10:42:16.048259    13 net.cpp:69] Creating Layer conv3_2
I0705 10:42:16.048262    13 net.cpp:396] conv3_2 <- conv3_1
I0705 10:42:16.048266    13 net.cpp:358] conv3_2 -> conv3_2
I0705 10:42:16.048270    13 net.cpp:98] Setting up conv3_2
I0705 10:42:16.048460    13 net.cpp:105] Top shape: 750 64 8 8 (3072000)
I0705 10:42:16.048466    13 layer_factory.hpp:78] Creating layer reul3_2
I0705 10:42:16.048470    13 net.cpp:69] Creating Layer reul3_2
I0705 10:42:16.048472    13 net.cpp:396] reul3_2 <- conv3_2
I0705 10:42:16.048475    13 net.cpp:347] reul3_2 -> conv3_2 (in-place)
I0705 10:42:16.048478    13 net.cpp:98] Setting up reul3_2
I0705 10:42:16.048481    13 net.cpp:105] Top shape: 750 64 8 8 (3072000)
I0705 10:42:16.048483    13 layer_factory.hpp:78] Creating layer pool3
I0705 10:42:16.048488    13 net.cpp:69] Creating Layer pool3
I0705 10:42:16.048491    13 net.cpp:396] pool3 <- conv3_2
I0705 10:42:16.048496    13 net.cpp:358] pool3 -> pool3
I0705 10:42:16.048499    13 net.cpp:358] pool3 -> pool3_mask
I0705 10:42:16.048503    13 net.cpp:98] Setting up pool3
I0705 10:42:16.048506    13 net.cpp:105] Top shape: 750 64 4 4 (768000)
I0705 10:42:16.048511    13 net.cpp:105] Top shape: 750 64 4 4 (768000)
I0705 10:42:16.048512    13 layer_factory.hpp:78] Creating layer middleConv50
I0705 10:42:16.048517    13 net.cpp:69] Creating Layer middleConv50
I0705 10:42:16.048519    13 net.cpp:396] middleConv50 <- pool3
I0705 10:42:16.048523    13 net.cpp:358] middleConv50 -> middleConv50
I0705 10:42:16.048527    13 net.cpp:98] Setting up middleConv50
I0705 10:42:16.048787    13 net.cpp:105] Top shape: 750 50 1 1 (37500)
I0705 10:42:16.048792    13 layer_factory.hpp:78] Creating layer relu6
I0705 10:42:16.048795    13 net.cpp:69] Creating Layer relu6
I0705 10:42:16.048801    13 net.cpp:396] relu6 <- middleConv50
I0705 10:42:16.048805    13 net.cpp:347] relu6 -> middleConv50 (in-place)
I0705 10:42:16.048813    13 net.cpp:98] Setting up relu6
I0705 10:42:16.048816    13 net.cpp:105] Top shape: 750 50 1 1 (37500)
I0705 10:42:16.048820    13 layer_factory.hpp:78] Creating layer fc7.50
I0705 10:42:16.048823    13 net.cpp:69] Creating Layer fc7.50
I0705 10:42:16.048825    13 net.cpp:396] fc7.50 <- middleConv50
I0705 10:42:16.048830    13 net.cpp:358] fc7.50 -> fc7.50
I0705 10:42:16.048833    13 net.cpp:98] Setting up fc7.50
I0705 10:42:16.049095    13 net.cpp:105] Top shape: 750 1024 1 1 (768000)
I0705 10:42:16.049101    13 layer_factory.hpp:78] Creating layer relu7
I0705 10:42:16.049104    13 net.cpp:69] Creating Layer relu7
I0705 10:42:16.049106    13 net.cpp:396] relu7 <- fc7.50
I0705 10:42:16.049111    13 net.cpp:347] relu7 -> fc7.50 (in-place)
I0705 10:42:16.049114    13 net.cpp:98] Setting up relu7
I0705 10:42:16.049116    13 net.cpp:105] Top shape: 750 1024 1 1 (768000)
I0705 10:42:16.049119    13 layer_factory.hpp:78] Creating layer fc8.2
I0705 10:42:16.049123    13 net.cpp:69] Creating Layer fc8.2
I0705 10:42:16.049125    13 net.cpp:396] fc8.2 <- fc7.50
I0705 10:42:16.049129    13 net.cpp:358] fc8.2 -> fc8.2
I0705 10:42:16.049134    13 net.cpp:98] Setting up fc8.2
I0705 10:42:16.049651    13 net.cpp:105] Top shape: 750 100 1 1 (75000)
I0705 10:42:16.049659    13 layer_factory.hpp:78] Creating layer fc8.2_fc8.2_0_split
I0705 10:42:16.049662    13 net.cpp:69] Creating Layer fc8.2_fc8.2_0_split
I0705 10:42:16.049664    13 net.cpp:396] fc8.2_fc8.2_0_split <- fc8.2
I0705 10:42:16.049669    13 net.cpp:358] fc8.2_fc8.2_0_split -> fc8.2_fc8.2_0_split_0
I0705 10:42:16.049674    13 net.cpp:358] fc8.2_fc8.2_0_split -> fc8.2_fc8.2_0_split_1
I0705 10:42:16.049677    13 net.cpp:358] fc8.2_fc8.2_0_split -> fc8.2_fc8.2_0_split_2
I0705 10:42:16.049681    13 net.cpp:98] Setting up fc8.2_fc8.2_0_split
I0705 10:42:16.049685    13 net.cpp:105] Top shape: 750 100 1 1 (75000)
I0705 10:42:16.049687    13 net.cpp:105] Top shape: 750 100 1 1 (75000)
I0705 10:42:16.049690    13 net.cpp:105] Top shape: 750 100 1 1 (75000)
I0705 10:42:16.049692    13 layer_factory.hpp:78] Creating layer prob
I0705 10:42:16.049696    13 net.cpp:69] Creating Layer prob
I0705 10:42:16.049700    13 net.cpp:396] prob <- fc8.2_fc8.2_0_split_0
I0705 10:42:16.049702    13 net.cpp:396] prob <- label_data_1_split_0
I0705 10:42:16.049705    13 net.cpp:358] prob -> prob
I0705 10:42:16.049710    13 net.cpp:98] Setting up prob
I0705 10:42:16.049715    13 net.cpp:105] Top shape: 1 1 1 1 (1)
I0705 10:42:16.049717    13 net.cpp:111]     with loss weight 1
I0705 10:42:16.049726    13 layer_factory.hpp:78] Creating layer accurLayerWinnerTop1
I0705 10:42:16.049732    13 net.cpp:69] Creating Layer accurLayerWinnerTop1
I0705 10:42:16.049736    13 net.cpp:396] accurLayerWinnerTop1 <- fc8.2_fc8.2_0_split_1
I0705 10:42:16.049738    13 net.cpp:396] accurLayerWinnerTop1 <- label_data_1_split_1
I0705 10:42:16.049742    13 net.cpp:358] accurLayerWinnerTop1 -> accurLayerWinnerTop1
I0705 10:42:16.049746    13 net.cpp:98] Setting up accurLayerWinnerTop1
I0705 10:42:16.049749    13 net.cpp:105] Top shape: 1 1 1 1 (1)
I0705 10:42:16.049752    13 layer_factory.hpp:78] Creating layer accurLayerWinnerTop5
I0705 10:42:16.049757    13 net.cpp:69] Creating Layer accurLayerWinnerTop5
I0705 10:42:16.049758    13 net.cpp:396] accurLayerWinnerTop5 <- fc8.2_fc8.2_0_split_2
I0705 10:42:16.049762    13 net.cpp:396] accurLayerWinnerTop5 <- label_data_1_split_2
I0705 10:42:16.049765    13 net.cpp:358] accurLayerWinnerTop5 -> accurLayerWinnerTop5
I0705 10:42:16.049768    13 net.cpp:98] Setting up accurLayerWinnerTop5
I0705 10:42:16.049772    13 net.cpp:105] Top shape: 1 1 1 1 (1)
I0705 10:42:16.049773    13 layer_factory.hpp:78] Creating layer silence1
I0705 10:42:16.049777    13 net.cpp:69] Creating Layer silence1
I0705 10:42:16.049779    13 net.cpp:396] silence1 <- pool1_mask
I0705 10:42:16.049782    13 net.cpp:98] Setting up silence1
I0705 10:42:16.049787    13 layer_factory.hpp:78] Creating layer silence2
I0705 10:42:16.049792    13 net.cpp:69] Creating Layer silence2
…
