…
I0705 20:38:56.707533 11757 solver.cpp:70] Creating training net from net file: proto/reconstructIncremental2.prototxt
I0705 20:38:56.708048 11757 net.cpp:277] The NetState phase (0) differed from the phase (1) specified by a rule in layer data
I0705 20:38:56.708206 11757 net.cpp:39] Initializing net from parameters: 
name: "miniLCLreconstruction"
layers {
  top: "data"
  name: "data"
  type: DATA
  data_param {
    source: "/dataset/cifar100_lmdb_lab/cifar100_train_lmdb"
    batch_size: 512
    backend: LMDB
  }
  include {
    phase: TRAIN
  }
  transform_param {
    mean_file: "/dataset/cifar100_lmdb_lab/mean.binaryproto"
  }
}
layers {
  bottom: "data"
  top: "conv1_1"
  name: "conv1_1"
  type: CONVOLUTION
  blobs_lr: 0
  blobs_lr: 0
  weight_decay: 0
  weight_decay: 0
  convolution_param {
    num_output: 64
    pad: 1
    kernel_size: 3
    weight_filler {
      type: "xavier"
    }
    bias_filler {
      type: "constant"
      value: 0
    }
  }
}
layers {
  bottom: "conv1_1"
  top: "conv1_1"
  name: "relu1_1"
  type: RELU
}
layers {
  bottom: "conv1_1"
  top: "conv1_2"
  name: "conv1_2"
  type: CONVOLUTION
  blobs_lr: 0
  blobs_lr: 0
  weight_decay: 0
  weight_decay: 0
  convolution_param {
    num_output: 64
    pad: 1
    kernel_size: 3
    weight_filler {
      type: "xavier"
    }
    bias_filler {
      type: "constant"
      value: 0
    }
  }
}
layers {
  bottom: "conv1_2"
  top: "conv1_2"
  name: "relu1_2"
  type: RELU
}
layers {
  bottom: "conv1_2"
  top: "pool1"
  top: "pool1_mask"
  name: "pool1"
  type: POOLING
  pooling_param {
    pool: MAX
    kernel_size: 2
    stride: 2
  }
}
layers {
  bottom: "pool1"
  top: "conv2_1"
  name: "conv2_1"
  type: CONVOLUTION
  blobs_lr: 0
  blobs_lr: 0
  weight_decay: 0
  weight_decay: 0
  convolution_param {
    num_output: 64
    pad: 1
    kernel_size: 3
    weight_filler {
      type: "xavier"
    }
    bias_filler {
      type: "constant"
      value: 0
    }
  }
}
layers {
  bottom: "conv2_1"
  top: "conv2_1"
  name: "relu2_1"
  type: RELU
}
layers {
  bottom: "conv2_1"
  top: "conv2_2"
  name: "conv2_2"
  type: CONVOLUTION
  blobs_lr: 0
  blobs_lr: 0
  weight_decay: 0
  weight_decay: 0
  convolution_param {
    num_output: 64
    pad: 1
    kernel_size: 3
    weight_filler {
      type: "xavier"
    }
    bias_filler {
      type: "constant"
      value: 0
    }
  }
}
layers {
  bottom: "conv2_2"
  top: "conv2_2"
  name: "relu2_2"
  type: RELU
}
layers {
  bottom: "conv2_2"
  top: "pool2"
  top: "pool2_mask"
  name: "pool2"
  type: POOLING
  pooling_param {
    pool: MAX
    kernel_size: 2
    stride: 2
  }
}
layers {
  bottom: "pool2"
  top: "conv3_1"
  name: "conv3_1"
  type: CONVOLUTION
  blobs_lr: 0
  blobs_lr: 0
  weight_decay: 0
  weight_decay: 0
  convolution_param {
    num_output: 64
    pad: 1
    kernel_size: 3
    weight_filler {
      type: "xavier"
    }
    bias_filler {
      type: "constant"
      value: 0
    }
  }
}
layers {
  bottom: "conv3_1"
  top: "conv3_1"
  name: "reul3_1"
  type: RELU
}
layers {
  bottom: "conv3_1"
  top: "conv3_2"
  name: "conv3_2"
  type: CONVOLUTION
  blobs_lr: 0
  blobs_lr: 0
  weight_decay: 0
  weight_decay: 0
  convolution_param {
    num_output: 64
    pad: 1
    kernel_size: 3
    weight_filler {
      type: "xavier"
    }
    bias_filler {
      type: "constant"
      value: 0
    }
  }
}
layers {
  bottom: "conv3_2"
  top: "conv3_2"
  name: "reul3_2"
  type: RELU
}
layers {
  bottom: "conv3_2"
  top: "pool3"
  top: "pool3_mask"
  name: "pool3"
  type: POOLING
  pooling_param {
    pool: MAX
    kernel_size: 2
    stride: 2
  }
}
layers {
  bottom: "pool3"
  top: "middleConv50"
  name: "middleConv50"
  type: CONVOLUTION
  blobs_lr: 0
  blobs_lr: 0
  weight_decay: 0
  weight_decay: 0
  convolution_param {
    num_output: 50
    kernel_size: 4
    weight_filler {
      type: "xavier"
    }
    bias_filler {
      type: "constant"
      value: 0
    }
  }
}
layers {
  bottom: "middleConv50"
  top: "deconv4_1"
  name: "deconv4_1"
  type: DECONVOLUTION
  blobs_lr: 1
  blobs_lr: 2
  weight_decay: 0
  weight_decay: 0
  convolution_param {
    num_output: 64
    pad: 0
    kernel_size: 4
    weight_filler {
      type: "xavier"
    }
    bias_filler {
      type: "constant"
      value: 0
    }
  }
}
layers {
  bottom: "deconv4_1"
  top: "deconv4_1"
  name: "dereul4_1"
  type: RELU
}
layers {
  bottom: "deconv4_1"
  bottom: "pool3_mask"
  top: "unpool3"
  name: "unpool3"
  type: UNPOOLING
  unpooling_param {
    unpool: MAX
    kernel_size: 2
    stride: 2
    unpool_size: 8
  }
}
layers {
  bottom: "unpool3"
  top: "deconv3_1"
  name: "deconv3_1"
  type: DECONVOLUTION
  blobs_lr: 1
  blobs_lr: 2
  weight_decay: 0
  weight_decay: 0
  convolution_param {
    num_output: 64
    pad: 1
    kernel_size: 3
    weight_filler {
      type: "xavier"
    }
    bias_filler {
      type: "constant"
      value: 0
    }
  }
}
layers {
  bottom: "deconv3_1"
  top: "deconv3_2"
  name: "deconv3_2"
  type: DECONVOLUTION
  blobs_lr: 1
  blobs_lr: 2
  weight_decay: 0
  weight_decay: 0
  convolution_param {
    num_output: 64
    pad: 1
    kernel_size: 3
    weight_filler {
      type: "xavier"
    }
    bias_filler {
      type: "constant"
      value: 0
    }
  }
}
layers {
  bottom: "deconv3_2"
  top: "deconv3_2"
  name: "dereul3_2"
  type: RELU
}
layers {
  bottom: "deconv3_2"
  bottom: "pool2_mask"
  top: "unpool2"
  name: "unpool2"
  type: UNPOOLING
  unpooling_param {
    unpool: MAX
    kernel_size: 2
    stride: 2
    unpool_size: 16
  }
}
layers {
  bottom: "unpool2"
  top: "deconv2_1"
  name: "deconv2_1"
  type: DECONVOLUTION
  blobs_lr: 1
  blobs_lr: 2
  weight_decay: 0
  weight_decay: 0
  convolution_param {
    num_output: 64
    pad: 1
    kernel_size: 3
    weight_filler {
      type: "xavier"
    }
    bias_filler {
      type: "constant"
      value: 0
    }
  }
}
layers {
  bottom: "deconv2_1"
  top: "deconv2_2"
  name: "deconv2_2"
  type: DECONVOLUTION
  blobs_lr: 1
  blobs_lr: 2
  weight_decay: 0
  weight_decay: 0
  convolution_param {
    num_output: 64
    pad: 1
    kernel_size: 3
    weight_filler {
      type: "xavier"
    }
    bias_filler {
      type: "constant"
      value: 0
    }
  }
}
layers {
  bottom: "deconv2_2"
  top: "deconv2_2"
  name: "derelu2_2"
  type: RELU
}
layers {
  bottom: "deconv2_2"
  bottom: "pool1"
  top: "L2_loss"
  name: "L2_loss"
  type: EUCLIDEAN_LOSS
}
layers {
  bottom: "pool3_mask"
  name: "silence3"
  type: SILENCE
}
layers {
  bottom: "pool2_mask"
  name: "silence2"
  type: SILENCE
}
layers {
  bottom: "pool1_mask"
  name: "silence1"
  type: SILENCE
}
state {
  phase: TRAIN
}
I0705 20:38:56.708312 11757 layer_factory.hpp:78] Creating layer data
I0705 20:38:56.708325 11757 data_transformer.cpp:25] Loading mean file from/dataset/cifar100_lmdb_lab/mean.binaryproto
I0705 20:38:56.708372 11757 net.cpp:69] Creating Layer data
I0705 20:38:56.708377 11757 net.cpp:358] data -> data
I0705 20:38:56.708384 11757 net.cpp:98] Setting up data
I0705 20:38:56.708387 11757 data_layer.cpp:32] Opening dataset /dataset/cifar100_lmdb_lab/cifar100_train_lmdb
I0705 20:38:56.708458 11757 data_layer.cpp:71] output data size: 512,3,32,32
I0705 20:38:56.709230 11757 net.cpp:105] Top shape: 512 3 32 32 (1572864)
I0705 20:38:56.709239 11757 layer_factory.hpp:78] Creating layer conv1_1
I0705 20:38:56.709245 11757 net.cpp:69] Creating Layer conv1_1
I0705 20:38:56.709249 11757 net.cpp:396] conv1_1 <- data
I0705 20:38:56.709252 11757 net.cpp:358] conv1_1 -> conv1_1
I0705 20:38:56.709259 11757 net.cpp:98] Setting up conv1_1
I0705 20:38:56.709542 11757 net.cpp:105] Top shape: 512 64 32 32 (33554432)
I0705 20:38:56.709549 11757 layer_factory.hpp:78] Creating layer relu1_1
I0705 20:38:56.709558 11757 net.cpp:69] Creating Layer relu1_1
I0705 20:38:56.709569 11757 net.cpp:396] relu1_1 <- conv1_1
I0705 20:38:56.709573 11757 net.cpp:347] relu1_1 -> conv1_1 (in-place)
I0705 20:38:56.709576 11757 net.cpp:98] Setting up relu1_1
I0705 20:38:56.709579 11757 net.cpp:105] Top shape: 512 64 32 32 (33554432)
I0705 20:38:56.709583 11757 layer_factory.hpp:78] Creating layer conv1_2
I0705 20:38:56.709586 11757 net.cpp:69] Creating Layer conv1_2
I0705 20:38:56.709589 11757 net.cpp:396] conv1_2 <- conv1_1
I0705 20:38:56.709592 11757 net.cpp:358] conv1_2 -> conv1_2
I0705 20:38:56.709597 11757 net.cpp:98] Setting up conv1_2
I0705 20:38:56.709792 11757 net.cpp:105] Top shape: 512 64 32 32 (33554432)
I0705 20:38:56.709800 11757 layer_factory.hpp:78] Creating layer relu1_2
I0705 20:38:56.709803 11757 net.cpp:69] Creating Layer relu1_2
I0705 20:38:56.709805 11757 net.cpp:396] relu1_2 <- conv1_2
I0705 20:38:56.709808 11757 net.cpp:347] relu1_2 -> conv1_2 (in-place)
I0705 20:38:56.709811 11757 net.cpp:98] Setting up relu1_2
I0705 20:38:56.709815 11757 net.cpp:105] Top shape: 512 64 32 32 (33554432)
I0705 20:38:56.709816 11757 layer_factory.hpp:78] Creating layer pool1
I0705 20:38:56.709820 11757 net.cpp:69] Creating Layer pool1
I0705 20:38:56.709822 11757 net.cpp:396] pool1 <- conv1_2
I0705 20:38:56.709826 11757 net.cpp:358] pool1 -> pool1
I0705 20:38:56.709831 11757 net.cpp:358] pool1 -> pool1_mask
I0705 20:38:56.709836 11757 net.cpp:98] Setting up pool1
I0705 20:38:56.709841 11757 net.cpp:105] Top shape: 512 64 16 16 (8388608)
I0705 20:38:56.709844 11757 net.cpp:105] Top shape: 512 64 16 16 (8388608)
I0705 20:38:56.709846 11757 layer_factory.hpp:78] Creating layer pool1_pool1_0_split
I0705 20:38:56.709849 11757 net.cpp:69] Creating Layer pool1_pool1_0_split
I0705 20:38:56.709852 11757 net.cpp:396] pool1_pool1_0_split <- pool1
I0705 20:38:56.709857 11757 net.cpp:358] pool1_pool1_0_split -> pool1_pool1_0_split_0
I0705 20:38:56.709861 11757 net.cpp:358] pool1_pool1_0_split -> pool1_pool1_0_split_1
I0705 20:38:56.709866 11757 net.cpp:98] Setting up pool1_pool1_0_split
I0705 20:38:56.709868 11757 net.cpp:105] Top shape: 512 64 16 16 (8388608)
I0705 20:38:56.709870 11757 net.cpp:105] Top shape: 512 64 16 16 (8388608)
I0705 20:38:56.709872 11757 layer_factory.hpp:78] Creating layer conv2_1
I0705 20:38:56.709877 11757 net.cpp:69] Creating Layer conv2_1
I0705 20:38:56.709878 11757 net.cpp:396] conv2_1 <- pool1_pool1_0_split_0
I0705 20:38:56.709883 11757 net.cpp:358] conv2_1 -> conv2_1
I0705 20:38:56.709887 11757 net.cpp:98] Setting up conv2_1
I0705 20:38:56.710072 11757 net.cpp:105] Top shape: 512 64 16 16 (8388608)
I0705 20:38:56.710078 11757 layer_factory.hpp:78] Creating layer relu2_1
I0705 20:38:56.710081 11757 net.cpp:69] Creating Layer relu2_1
I0705 20:38:56.710084 11757 net.cpp:396] relu2_1 <- conv2_1
I0705 20:38:56.710088 11757 net.cpp:347] relu2_1 -> conv2_1 (in-place)
I0705 20:38:56.710093 11757 net.cpp:98] Setting up relu2_1
I0705 20:38:56.710094 11757 net.cpp:105] Top shape: 512 64 16 16 (8388608)
I0705 20:38:56.710096 11757 layer_factory.hpp:78] Creating layer conv2_2
I0705 20:38:56.710100 11757 net.cpp:69] Creating Layer conv2_2
I0705 20:38:56.710103 11757 net.cpp:396] conv2_2 <- conv2_1
I0705 20:38:56.710108 11757 net.cpp:358] conv2_2 -> conv2_2
I0705 20:38:56.710113 11757 net.cpp:98] Setting up conv2_2
I0705 20:38:56.710320 11757 net.cpp:105] Top shape: 512 64 16 16 (8388608)
I0705 20:38:56.710326 11757 layer_factory.hpp:78] Creating layer relu2_2
I0705 20:38:56.710330 11757 net.cpp:69] Creating Layer relu2_2
I0705 20:38:56.710331 11757 net.cpp:396] relu2_2 <- conv2_2
I0705 20:38:56.710335 11757 net.cpp:347] relu2_2 -> conv2_2 (in-place)
I0705 20:38:56.710338 11757 net.cpp:98] Setting up relu2_2
I0705 20:38:56.710340 11757 net.cpp:105] Top shape: 512 64 16 16 (8388608)
I0705 20:38:56.710343 11757 layer_factory.hpp:78] Creating layer pool2
I0705 20:38:56.710346 11757 net.cpp:69] Creating Layer pool2
I0705 20:38:56.710350 11757 net.cpp:396] pool2 <- conv2_2
I0705 20:38:56.710355 11757 net.cpp:358] pool2 -> pool2
I0705 20:38:56.710358 11757 net.cpp:358] pool2 -> pool2_mask
I0705 20:38:56.710366 11757 net.cpp:98] Setting up pool2
I0705 20:38:56.710369 11757 net.cpp:105] Top shape: 512 64 8 8 (2097152)
I0705 20:38:56.710371 11757 net.cpp:105] Top shape: 512 64 8 8 (2097152)
I0705 20:38:56.710373 11757 layer_factory.hpp:78] Creating layer pool2_mask_pool2_1_split
I0705 20:38:56.710377 11757 net.cpp:69] Creating Layer pool2_mask_pool2_1_split
I0705 20:38:56.710381 11757 net.cpp:396] pool2_mask_pool2_1_split <- pool2_mask
I0705 20:38:56.710383 11757 net.cpp:358] pool2_mask_pool2_1_split -> pool2_mask_pool2_1_split_0
I0705 20:38:56.710387 11757 net.cpp:358] pool2_mask_pool2_1_split -> pool2_mask_pool2_1_split_1
I0705 20:38:56.710391 11757 net.cpp:98] Setting up pool2_mask_pool2_1_split
I0705 20:38:56.710393 11757 net.cpp:105] Top shape: 512 64 8 8 (2097152)
I0705 20:38:56.710396 11757 net.cpp:105] Top shape: 512 64 8 8 (2097152)
I0705 20:38:56.710397 11757 layer_factory.hpp:78] Creating layer conv3_1
I0705 20:38:56.710402 11757 net.cpp:69] Creating Layer conv3_1
I0705 20:38:56.710404 11757 net.cpp:396] conv3_1 <- pool2
I0705 20:38:56.710408 11757 net.cpp:358] conv3_1 -> conv3_1
I0705 20:38:56.710412 11757 net.cpp:98] Setting up conv3_1
I0705 20:38:56.710602 11757 net.cpp:105] Top shape: 512 64 8 8 (2097152)
I0705 20:38:56.710608 11757 layer_factory.hpp:78] Creating layer reul3_1
I0705 20:38:56.710610 11757 net.cpp:69] Creating Layer reul3_1
I0705 20:38:56.710613 11757 net.cpp:396] reul3_1 <- conv3_1
I0705 20:38:56.710618 11757 net.cpp:347] reul3_1 -> conv3_1 (in-place)
I0705 20:38:56.710621 11757 net.cpp:98] Setting up reul3_1
I0705 20:38:56.710623 11757 net.cpp:105] Top shape: 512 64 8 8 (2097152)
I0705 20:38:56.710626 11757 layer_factory.hpp:78] Creating layer conv3_2
I0705 20:38:56.710629 11757 net.cpp:69] Creating Layer conv3_2
I0705 20:38:56.710633 11757 net.cpp:396] conv3_2 <- conv3_1
I0705 20:38:56.710636 11757 net.cpp:358] conv3_2 -> conv3_2
I0705 20:38:56.710640 11757 net.cpp:98] Setting up conv3_2
I0705 20:38:56.710834 11757 net.cpp:105] Top shape: 512 64 8 8 (2097152)
I0705 20:38:56.710839 11757 layer_factory.hpp:78] Creating layer reul3_2
I0705 20:38:56.710844 11757 net.cpp:69] Creating Layer reul3_2
I0705 20:38:56.710846 11757 net.cpp:396] reul3_2 <- conv3_2
I0705 20:38:56.710850 11757 net.cpp:347] reul3_2 -> conv3_2 (in-place)
I0705 20:38:56.710852 11757 net.cpp:98] Setting up reul3_2
I0705 20:38:56.710855 11757 net.cpp:105] Top shape: 512 64 8 8 (2097152)
I0705 20:38:56.710857 11757 layer_factory.hpp:78] Creating layer pool3
I0705 20:38:56.710860 11757 net.cpp:69] Creating Layer pool3
I0705 20:38:56.710863 11757 net.cpp:396] pool3 <- conv3_2
I0705 20:38:56.710870 11757 net.cpp:358] pool3 -> pool3
I0705 20:38:56.710873 11757 net.cpp:358] pool3 -> pool3_mask
I0705 20:38:56.710877 11757 net.cpp:98] Setting up pool3
I0705 20:38:56.710880 11757 net.cpp:105] Top shape: 512 64 4 4 (524288)
I0705 20:38:56.710882 11757 net.cpp:105] Top shape: 512 64 4 4 (524288)
I0705 20:38:56.710886 11757 layer_factory.hpp:78] Creating layer pool3_mask_pool3_1_split
I0705 20:38:56.710889 11757 net.cpp:69] Creating Layer pool3_mask_pool3_1_split
I0705 20:38:56.710891 11757 net.cpp:396] pool3_mask_pool3_1_split <- pool3_mask
I0705 20:38:56.710894 11757 net.cpp:358] pool3_mask_pool3_1_split -> pool3_mask_pool3_1_split_0
I0705 20:38:56.710898 11757 net.cpp:358] pool3_mask_pool3_1_split -> pool3_mask_pool3_1_split_1
I0705 20:38:56.710901 11757 net.cpp:98] Setting up pool3_mask_pool3_1_split
I0705 20:38:56.710904 11757 net.cpp:105] Top shape: 512 64 4 4 (524288)
I0705 20:38:56.710906 11757 net.cpp:105] Top shape: 512 64 4 4 (524288)
I0705 20:38:56.710908 11757 layer_factory.hpp:78] Creating layer middleConv50
I0705 20:38:56.710912 11757 net.cpp:69] Creating Layer middleConv50
I0705 20:38:56.710914 11757 net.cpp:396] middleConv50 <- pool3
I0705 20:38:56.710919 11757 net.cpp:358] middleConv50 -> middleConv50
I0705 20:38:56.710923 11757 net.cpp:98] Setting up middleConv50
I0705 20:38:56.711189 11757 net.cpp:105] Top shape: 512 50 1 1 (25600)
I0705 20:38:56.711195 11757 layer_factory.hpp:78] Creating layer deconv4_1
I0705 20:38:56.711205 11757 net.cpp:69] Creating Layer deconv4_1
I0705 20:38:56.711208 11757 net.cpp:396] deconv4_1 <- middleConv50
I0705 20:38:56.711213 11757 net.cpp:358] deconv4_1 -> deconv4_1
I0705 20:38:56.711218 11757 net.cpp:98] Setting up deconv4_1
I0705 20:38:56.711483 11757 net.cpp:105] Top shape: 512 64 4 4 (524288)
I0705 20:38:56.711488 11757 layer_factory.hpp:78] Creating layer dereul4_1
I0705 20:38:56.711493 11757 net.cpp:69] Creating Layer dereul4_1
I0705 20:38:56.711495 11757 net.cpp:396] dereul4_1 <- deconv4_1
I0705 20:38:56.711498 11757 net.cpp:347] dereul4_1 -> deconv4_1 (in-place)
I0705 20:38:56.711503 11757 net.cpp:98] Setting up dereul4_1
I0705 20:38:56.711504 11757 net.cpp:105] Top shape: 512 64 4 4 (524288)
I0705 20:38:56.711508 11757 layer_factory.hpp:78] Creating layer unpool3
I0705 20:38:56.711511 11757 net.cpp:69] Creating Layer unpool3
I0705 20:38:56.711513 11757 net.cpp:396] unpool3 <- deconv4_1
I0705 20:38:56.711516 11757 net.cpp:396] unpool3 <- pool3_mask_pool3_1_split_0
I0705 20:38:56.711519 11757 net.cpp:358] unpool3 -> unpool3
I0705 20:38:56.711524 11757 net.cpp:98] Setting up unpool3
I0705 20:38:56.711529 11757 net.cpp:105] Top shape: 512 64 8 8 (2097152)
I0705 20:38:56.711531 11757 layer_factory.hpp:78] Creating layer deconv3_1
I0705 20:38:56.711535 11757 net.cpp:69] Creating Layer deconv3_1
I0705 20:38:56.711539 11757 net.cpp:396] deconv3_1 <- unpool3
I0705 20:38:56.711542 11757 net.cpp:358] deconv3_1 -> deconv3_1
I0705 20:38:56.711546 11757 net.cpp:98] Setting up deconv3_1
I0705 20:38:56.711747 11757 net.cpp:105] Top shape: 512 64 8 8 (2097152)
I0705 20:38:56.711753 11757 layer_factory.hpp:78] Creating layer deconv3_2
I0705 20:38:56.711758 11757 net.cpp:69] Creating Layer deconv3_2
I0705 20:38:56.711761 11757 net.cpp:396] deconv3_2 <- deconv3_1
I0705 20:38:56.711766 11757 net.cpp:358] deconv3_2 -> deconv3_2
I0705 20:38:56.711769 11757 net.cpp:98] Setting up deconv3_2
I0705 20:38:56.711957 11757 net.cpp:105] Top shape: 512 64 8 8 (2097152)
I0705 20:38:56.711962 11757 layer_factory.hpp:78] Creating layer dereul3_2
I0705 20:38:56.711966 11757 net.cpp:69] Creating Layer dereul3_2
I0705 20:38:56.711967 11757 net.cpp:396] dereul3_2 <- deconv3_2
I0705 20:38:56.711971 11757 net.cpp:347] dereul3_2 -> deconv3_2 (in-place)
I0705 20:38:56.711976 11757 net.cpp:98] Setting up dereul3_2
I0705 20:38:56.711977 11757 net.cpp:105] Top shape: 512 64 8 8 (2097152)
I0705 20:38:56.711979 11757 layer_factory.hpp:78] Creating layer unpool2
I0705 20:38:56.711983 11757 net.cpp:69] Creating Layer unpool2
I0705 20:38:56.711985 11757 net.cpp:396] unpool2 <- deconv3_2
I0705 20:38:56.711988 11757 net.cpp:396] unpool2 <- pool2_mask_pool2_1_split_0
I0705 20:38:56.711992 11757 net.cpp:358] unpool2 -> unpool2
I0705 20:38:56.711997 11757 net.cpp:98] Setting up unpool2
I0705 20:38:56.711999 11757 net.cpp:105] Top shape: 512 64 16 16 (8388608)
I0705 20:38:56.712002 11757 layer_factory.hpp:78] Creating layer deconv2_1
I0705 20:38:56.712005 11757 net.cpp:69] Creating Layer deconv2_1
I0705 20:38:56.712007 11757 net.cpp:396] deconv2_1 <- unpool2
I0705 20:38:56.712012 11757 net.cpp:358] deconv2_1 -> deconv2_1
I0705 20:38:56.712014 11757 net.cpp:98] Setting up deconv2_1
I0705 20:38:56.712234 11757 net.cpp:105] Top shape: 512 64 16 16 (8388608)
I0705 20:38:56.712242 11757 layer_factory.hpp:78] Creating layer deconv2_2
I0705 20:38:56.712246 11757 net.cpp:69] Creating Layer deconv2_2
I0705 20:38:56.712249 11757 net.cpp:396] deconv2_2 <- deconv2_1
I0705 20:38:56.712255 11757 net.cpp:358] deconv2_2 -> deconv2_2
I0705 20:38:56.712257 11757 net.cpp:98] Setting up deconv2_2
I0705 20:38:56.712460 11757 net.cpp:105] Top shape: 512 64 16 16 (8388608)
I0705 20:38:56.712465 11757 layer_factory.hpp:78] Creating layer derelu2_2
I0705 20:38:56.712468 11757 net.cpp:69] Creating Layer derelu2_2
I0705 20:38:56.712471 11757 net.cpp:396] derelu2_2 <- deconv2_2
I0705 20:38:56.712473 11757 net.cpp:347] derelu2_2 -> deconv2_2 (in-place)
I0705 20:38:56.712479 11757 net.cpp:98] Setting up derelu2_2
I0705 20:38:56.712482 11757 net.cpp:105] Top shape: 512 64 16 16 (8388608)
I0705 20:38:56.712491 11757 layer_factory.hpp:78] Creating layer L2_loss
I0705 20:38:56.712494 11757 net.cpp:69] Creating Layer L2_loss
I0705 20:38:56.712496 11757 net.cpp:396] L2_loss <- deconv2_2
I0705 20:38:56.712501 11757 net.cpp:396] L2_loss <- pool1_pool1_0_split_1
I0705 20:38:56.712504 11757 net.cpp:358] L2_loss -> L2_loss
I0705 20:38:56.712508 11757 net.cpp:98] Setting up L2_loss
I0705 20:38:56.712513 11757 net.cpp:105] Top shape: 1 1 1 1 (1)
I0705 20:38:56.712517 11757 net.cpp:111]     with loss weight 1
I0705 20:38:56.712529 11757 layer_factory.hpp:78] Creating layer silence3
I0705 20:38:56.712535 11757 net.cpp:69] Creating Layer silence3
I0705 20:38:56.712538 11757 net.cpp:396] silence3 <- pool3_mask_pool3_1_split_1
I0705 20:38:56.712540 11757 net.cpp:98] Setting up silence3
I0705 20:38:56.712543 11757 layer_factory.hpp:78] Creating layer silence2
…
